model/CartPole_q_critic30.pth (torch, 14578 bytes, 10 tensors)

l1.weight f4 [32, 5]
-0.15552509 0.39532542 0.7518449 0.5003517 -0.31143513 -0.07304318 0.50882095 0.7552216
-0.32657605 0.119514726 0.30372372 -0.85600406 0.30405197 1.0377247 -0.1865271 -0.05746123
-0.008490655 0.44622365 0.9839641 0.26766172 0.19757864 0.2626302 0.77589935 -0.16500604
-0.039476983 -0.16584978 0.06417541 0.79609853 0.5899616 0.08905934 0.3396677 -0.8356246
0.1788775 1.0153254 0.01638682 0.27070698 -0.682014 0.121618934 1.29146 0.00665404
-0.38624376 0.693204 0.6824604 0.10620036 0.018304655 -0.42157128 -0.35181233 0.56471264
0.26146412 0.32118857 -0.39955422 0.06835022 0.34521243 0.52950335 0.56606233 0.50203747
-0.009480619 -0.3253746 -0.107676126 -0.5002749 0.053226963 0.17284293 -0.20591922 -0.020704044
-0.45110378 0.36036196 -0.12054195 -0.7563831 -0.18914025 0.3819698 -0.07297022 -0.18565391
0.4176007 0.281223 -0.41094863 -0.7526465 -0.22666994 0.24859445 0.010643262 -0.2935534
-0.37105796 -0.5545724 -0.37460873 0.15716049 0.3261504 -0.23107383 0.2869604 0.58933973
0.10994144 0.04916591 -0.0070357528 -0.17959009 0.4544328 0.38066974 0.40123808 -0.24337263
0.2844517 0.7479907 -0.13181752 0.04279447 0.18823186 -0.67256355 0.6827728 1.1663928
0.03507885 0.1982418 0.13074984 -0.11384374 0.051190987 0.24274814 -0.10102179 0.633411
0.79736316 -0.07436028 0.06258673 0.021112759 0.39962116 0.49865308 0.004103433 -0.45627472
0.22614944 0.114410505 0.6435092 -0.18360376 0.022949371 0.08927322 -0.30531293 0.25437975
0.9952434 -0.007861351 0.057053108 0.083645165 -0.49724427 -0.14655598 -0.33860606 0.35365102
0.6772815 0.34546542 0.08715751 -0.31100795 0.15854637 0.015277664 0.7850973 0.63570046
0.2910434 0.20143327 -0.117468216 0.51394194 0.16193998 0.16573884 0.18040295 -0.68096036
-0.49115235 -0.15019087 0.31273192 -0.0707624 0.40443978 0.72210354 0.103684574 0.054271266
00000000: f841 1fbe 1868 ca3e e878 403f 0d17 003f
00000010: 6d74 9fbe aa97 95bd 1742 023f 3456 413f
00000020: fa34 a7be 23c4 f43d ad81 9b3e 1523 5bbf
00000030: b3ac 9b3e 2ad4 843f f600 3fbe 775c 6bbd
00000040: 631c 0bbc 6d77 e43e 12e5 7b3f f50a 893e
00000050: 0e52 4a3e 7777 863e 57a1 463f 58f7 28be
00000060: 9eb2 21bd 86d4 29be 666e 833d 1dcd 4b3f
00000070: b907 173f be64 b63d ede8 ad3e 7eeb 55bf
00000080: aa2b 373e 2ff6 813f a73d 863c 1b9a 8a3e
00000090: 7898 2ebf 5913 f93d 904e a53f 220a da3b
000000a0: bec1 c5be d175 313f bab5 2e3f 937f d93d
000000b0: a5f3 953c 31d8 d7be bf20 b4be 0291 103f
000000c0: a0de 853e d472 a43e 5f92 ccbe 33fb 8b3d
000000d0: afbf b03e 888d 073f 76e9 103f 8785 003f
000000e0: 9954 1bbc 8097 a6be 4d85 dcbd 0412 00bf
000000f0: 8404 5a3d bdfd 303e 7ddc 52be 879b a9bc
00000100: 13f7 e6be 5d81 b83e b3de f6bd 53a2 41bf
00000110: fbad 41be 8c91 c33e 6971 95bd 0f1c 3ebe
00000120: c2cf d53e 76fc 8f3e dc67 d2be 71ad 40bf
00000130: 2a1c 68be 8b8f 7e3e 1461 2e3c a24c 96be
00000140: 4ffb bdbe 75f8 0dbf b7cc bfbe aeee 203e
00000150: 2ffd a63e 9e9e 6cbe 79ec 923e f8de 163f
00000160: fa28 e13d 3162 493d 2c8c e6bb 77e6 37be
00000170: 6aab e83e 25e7 c23e 146f cd3e ad36 79be
00000180: a7a3 913e 527c 3f3f 2cfb 06be 4149 2f3d
00000190: dabf 403e 202d 2cbf 33ca 2e3f 5c4c 953f
000001a0: d7ae 0f3d e6ff 4a3e 49e3 053e e826 e9bd
000001b0: a4ad 513d f892 783e 83e4 cebd 3927 223f
000001c0: fe1f 4c3f 344a 98bd 792d 803d aaf4 ac3c
000001d0: 259b cc3e 754f ff3e 1776 863b d79c e9be
000001e0: b893 673e 0e50 ea3d 05bd 243f a002 3cbe
000001f0: 5200 bc3c e1d4 b63d fa51 9cbe 103e 823e
00000200: 45c8 7e3f e5cc 00bc 85b0 693d 284e ab3d
00000210: cd96 febe c512 16be c65d adbe bf11 b53e
00000220: 5262 2d3f d8e0 b03e a37f b23d 6f3c 9fbe
00000230: fb59 223e 2b4f 7a3c 23fc 483f 44bd 223f
00000240: a403 953e 8644 4e3e 2d93 f0bd b391 033f
00000250: 98d3 253e 71b7 293e 8dbb 383e 6b53 2ebf
00000260: 5278 fbbe a3cb 19be 661e a03e e1eb 90bd
00000270: bb12 cf3e c7db 383f 9458 d43d 8c4b 5e3d

l1.bias f4 [32]
0.48275834 1.0361648 0.20752408 0.93717664 1.3018879 1.2389643 0.0027728588 0.29769808
0.37327027 0.5329026 0.79926467 -0.14241661 -0.24875829 -0.48518 0.36087584 0.29414997
-0.2391812 1.1503778 0.9909087 0.5620598 0.04081692 -0.72431487 0.86919534 1.0019132
0.61520064 -0.17725666 0.023801943 0.63733935 0.38726076 0.49963102 0.10891155 0.64690834
00000000: 1a2c f73e 0ca1 843f 3181 543e cfea 6f3f
00000010: 43a4 a63f 6296 9e3f dab8 353b e26b 983e
00000020: 481d bf3e 4e6c 083f 9c9c 4c3f a9d5 11be
00000030: 7eba 7ebe 8369 f8be b8c4 b83e d39a 963e
00000040: ebeb 74be 943f 933f 31ac 7d3f 27e3 0f3f
00000050: a52f 273d b36c 39bf 9683 5e3f b13e 803f
00000060: ca7d 1d3f c582 35be 4bfc c23c ac28 233f
00000070: 0b47 c63e a3cf ff3e 050d df3d c99b 253f

l2.weight f4 [32, 32]
-0.064787224 0.021641469 -0.22609651 0.040553205 -0.020384412 -0.029443981 -0.02357838 -0.37155488
-0.3162369 0.24493775 0.2407792 0.19027567 -0.08018419 0.40896147 -1.3575817 -0.7893565
0.14378028 -0.029913003 0.1703949 -0.123742744 0.057569712 0.06695066 -0.120785214 -0.3560065
-0.23360106 -0.108251646 0.11131964 0.021543646 0.018323362 0.12199473 0.34944555 0.21913931
0.49391958 0.24707592 0.29325783 0.13897727 0.24322069 0.50652105 0.7571638 0.87210053
0.5233519 0.23293136 0.06552376 0.07542983 0.11786257 -0.24846469 0.2526255 0.24446353
-0.119380824 0.5490699 0.29238364 0.47838923 0.18568124 -0.21752131 0.47749 0.31749928
0.16609284 0.66994363 -0.1829591 0.33897257 0.14453974 0.29987708 -0.3802912 0.30471927
0.02041371 -0.11209713 0.1410508 0.12078775 0.17886214 0.056074467 -0.6052464 -0.543589
-0.28718805 0.15171103 -0.13942952 0.13450019 0.06932738 0.11444568 0.031638946 0.30123058
-0.5914625 -0.10598559 -0.019334495 -0.003610411 0.17379256 -0.15414158 -0.0966773 0.031683218
-0.016517939 -0.030475458 0.104198895 0.26191434 0.20127797 0.21965623 0.1315404 -0.100153185
0.098499835 -0.039509125 -0.007524969 0.18824042 -0.2220813 0.19044001 -0.0059226486 -0.2038972
0.21576443 0.28443676 -0.005598848 -0.15325467 0.06613584 -0.18942395 0.08543715 0.32430306
0.36897883 0.15874653 0.11552569 0.0025521817 -0.14713565 -0.1814049 -0.19944425 0.075911514
-0.16748783 -0.13599502 -0.19942498 0.055465102 -0.20729074 -0.18845454 0.06582992 -0.091765225
-0.21720797 -0.20674095 0.1369409 0.087230146 -0.3522368 -0.100850604 -0.0495029 -0.07935623
-0.32067677 0.1675794 0.121783316 -0.021303566 0.020593245 -0.04124905 -0.3202614 0.1710697
0.1764007 -0.17829806 0.119545355 0.17547755 -0.027618425 0.11178967 -0.10096772 -0.10993074
-0.056305397 -0.004579199 -0.00067183166 -0.21624836 -0.024762955 0.13665599 0.17202619 -0.20385906
0.46413475 0.36588517 0.40201488 0.23719957 0.2943048 0.34366667 0.61454463 0.58159554
0.409828 0.18118954 0.15356536 -0.16027305 0.025726156 -0.43132675 0.39412925 0.2027112
-0.117021926 0.22803915 0.16713156 0.3545205 0.121028855 -0.21081755 0.47492474 0.47560674
0.39895412 0.61967605 -0.10614888 0.2926771 0.33910474 0.13744031 -0.3142646 0.44926018
0.09339087 -0.5105637 0.012984323 -0.12265544 0.23846589 -0.1180863 -0.43051443 -0.103555515
-0.36279315 -0.51749593 -0.19084752 0.36953127 0.22020842 0.012667243 0.23591706 0.21124364
-0.1133747 -0.1296424 0.029572284 -0.27113724 -0.50768435 0.23718095 -0.25497076 0.16097681
-0.14102474 -0.19256544 0.32013258 -0.026850486 -0.5730501 0.24184291 0.10290356 -0.38028702
0.42648765 0.20457095 0.62379813 0.3955733 0.3685246 0.42237887 0.7299078 0.61070305
0.39776817 0.25879103 0.12326599 0.063915186 -0.100560136 -0.47227314 0.27729157 -0.062819086
0.030344272 0.33788013 0.0716174 0.36558595 0.19858631 -0.19087335 0.4448684 0.2331621
0.40689543 0.6455085 -0.1880271 0.27966556 0.16262965 0.34959584 -0.14129251 0.40685627
00000000: 2aaf 84bd 7349 b13c d885 67be 1e1b 263d
00000010: 36fd a6bc 8134 f1bc 7227 c1bc 713c bebe
00000020: cee9 a1be f6d0 7a3e d38e 763e a0d7 423e
00000030: 9c37 a4bd 6663 d13e 3dc5 adbf 4513 4abf
00000040: 233b 133e 1d0c f5bc 007c 2e3e d66c fdbd
00000050: 38ce 6b3d 6d1d 893d 3d5e f7bd 7c46 b6be
00000060: 1e35 6fbe 0ab3 ddbd 8dfb e33d 4d7c b03c
00000070: e01a 963c 5fd8 f93d 87ea b23e 0e66 603e
00000080: 07e3 fc3e 7801 7d3e e425 963e 0f50 0e3e
00000090: d80e 793e 5dab 013f 7dd5 413f fb41 5f3f
000000a0: 64fa 053f 8f85 6e3e 5231 863d f47a 9a3d
000000b0: ee61 f13d 876d 7ebe 2158 813e a654 7a3e
000000c0: ef7d f4bd d88f 0c3f 4fb3 953e 6fef f43e
000000d0: 3923 3e3e e8bd 5ebe 9279 f43e 448f a23e
000000e0: 3e14 2a3e 6d81 2b3f a159 3bbe d08d ad3e
000000f0: 3a02 143e 7d89 993e 87b5 c2be 2a04 9c3e
00000100: a73a a73c 2e93 e5bd 9f6f 103e 915f f73d
00000110: a327 373e 57ae 653d 6ef1 1abf a628 0bbf
00000120: 500a 93be 235a 1b3e 9dc6 0ebe 6bba 093e
00000130: 83fb 8d3d 7f62 ea3d d797 013d e53a 9a3e
00000140: 166a 17bf f90e d9bd 6063 9ebc a59c 6cbb
00000150: adf6 313e 4ad7 1dbe c0fe c5bd 43c6 013d
00000160: a150 87bc aba7 f9bc 3b66 d53d a319 863e
00000170: d01b 4e3e 90ed 603e 87b2 063e 1d1d cdbd
00000180: 48ba c93d 52d4 21bd 0494 f6bb 19c2 403e
00000190: 4869 63be b502 433e c712 c2bb 6dca 50be
000001a0: 5af1 5c3e b2a1 913e 8b76 b7bb cbee 1cbe
000001b0: 3a72 873d 5af8 41be acf9 ae3d 0d0b a63e
000001c0: cbea bc3e 738e 223e bc98 ec3d 8142 273b
000001d0: baaa 16be 35c2 39be 1d3b 4cbe 7f77 9b3d
000001e0: ee81 2bbe 4742 0bbe 1036 4cbe 602f 633d
000001f0: 0644 54be 3afa 40be d6d1 863d 68ef bbbd
00000200: c46b 5ebe e6b3 53be 3c3a 0c3e b8a5 b23d
00000210: 6258 b4be c38a cebd 8ec3 4abd 8585 a2bd
00000220: bf2f a4be ef99 2b3e 8869 f93d d184 aebc
00000230: 2ab3 a83c c4f4 28bd 4df9 a3be e52c 2f3e
00000240: 63a2 343e c493 36be 32d4 f43d 63b0 333e
00000250: 0940 e2bc fcf1 e43d 2ac8 cebd 5e23 e1bd
00000260: 7da0 66bd 1b0d 96bb dc1d 30ba 3670 5dbe
00000270: aedb cabc 8cef 0b3e a227 303e 6ec0 50be
00000280: 12a3 ed3e 4d55 bb3e e5d4 cd3e 72e4 723e
00000290: 1eaf 963e 14f5 af3e cc52 1d3f 72e3 143f
000002a0: fad4 d13e c089 393e 3d40 1d3e 9e1e 24be
000002b0: a9bf d23c dcd6 dcbe 4fcb c93e 8693 4f3e
000002c0: 31a9 efbd 1883 693e 8924 2b3e b683 b53e
000002d0: fadd f73d 8ee0 57be 5629 f33e ba82 f33e
000002e0: b743 cc3e 17a3 1e3f 9664 d9bd c6d9 953e
000002f0: 239f ad3e 27bd 0c3e 4ae7 a0be 6e05 e63e
00000300: b643 bf3d 4db4 02bf 33bc 543c c632 fbbd
00000310: 6730 743e 3bd7 f1bd 636c dcbe ea14 d4bd
00000320: 06c0 b9be 9d7a 04bf 886d 43be 3433 bd3e
00000330: 517e 613e 458a 4f3c 3e94 713e 4150 583e
00000340: ff30 e8bd fac0 04be 9341 f23c 80d2 8abe
00000350: 9af7 01bf 90df 723e 878b 82be 1bd7 243e
00000360: ca68 10be e02f 45be 6be8 a33e 8df5 dbbc
00000370: 69b3 12bf aba5 773e 1abf d23d fbb4 c2be
00000380: 975c da3e 0c7b 513e 3cb1 1f3f 9588 ca3e
00000390: 42af bc3e 0b42 d83e 3ddb 3a3f 0957 1c3f
000003a0: 45a8 cb3e 4280 843e e172 fc3d f7e5 823d
000003b0: 79f2 cdbd c9cd f1be 29f9 8d3e 4ba7 80bd
000003c0: 8d94 f83c a0fe ac3e 25ac 923d 152e bb3e
000003d0: 365a 4b3e 4e74 43be cac5 e33e 0cc2 6e3e
000003e0: 9954 d03e 0c40 253f 2d8a 40be 5330 8f3e
000003f0: 6388 263e 3afe b23e fcae 10be 774f d03e

l2.bias f4 [32]
-0.22860666 0.7684805 -0.11310961 -0.0091195665 -0.20122083 0.8114985 0.075107634 0.5827025
0.6768098 -0.19400084 -0.2979087 0.8826381 -0.2995436 0.63577676 0.08586036 -0.042901266
-0.053093545 0.6667646 0.7523522 0.02977068 0.58384305 0.2420041 0.72542095 0.6643101
0.038821723 0.6018223 0.7972858 -0.24112314 0.8854356 -0.19794516 -0.034911912 0.89754647
00000000: dd17 6abe 23bb 443f 03a6 e7bd 3c6a 15bc
00000010: d50c 4ebe 5ebe 4f3f 08d2 993d fe2b 153f
00000020: 6843 2d3f 28a8 46be 7d87 98be 92f4 613f
00000030: c75d 99be 44c2 223f 8ed7 af3d 3db9 2fbd
00000040: 9e78 59bd 16b1 2a3f 279a 403f a4e1 f33c
00000050: bd76 153f eccf 773e 30b5 393f 3a10 2a3f
00000060: 8703 1f3d 0711 1a3f ec1a 4c3f fce8 76be
00000070: e8ab 623f 23b2 4abe cbff 0ebd 9bc5 653f

l3.weight f4 [1, 32]
0.48133445 -0.55696905 0.6264022 0.7655712 0.47029072 -0.49751425 0.62400126 -0.49796775
-0.49921525 0.5490636 0.7818194 -0.48554263 0.54479 -0.44185394 0.72112656 0.67432034
0.58831745 -0.53967583 -0.47995254 0.67064714 -0.58922064 0.36048627 -0.5484525 -0.47702163
0.46578866 -0.5676703 -0.5676536 0.3858932 -0.57652724 0.520532 -0.12777328 -0.4194791
00000000: 7871 f63e 8695 0ebf e55b 203f 79fc 433f
00000010: f2c9 f03e 30ba febe 8cbe 1f3f a1f5 febe
00000020: 2499 ffbe 6f8f 0c3f 5125 483f 0b99 f8be
00000030: 5c77 0b3f ae3a e2be c09b 383f 42a0 2c3f
00000040: f99b 163f 3228 0abf 57bc f5be 88af 2b3f
00000050: 2ad7 16bf a891 b83e 6267 0cbf 2e3c f4be
00000060: da7b ee3e d752 11bf bf51 11bf cb93 c53e
00000070: 4a97 13bf 9641 053f 00d7 02be f7c5 d6be

l4.weight f4 [32, 5]
0.10978379 -0.34489533 0.4821854 0.6670017 0.38657126 -0.24361122 -0.47939178 0.41654405
0.24367447 -0.4125947 -0.35314927 -0.1446739 -0.47486776 -0.46272588 -0.3823292 -0.21466458
0.25118327 0.68587726 0.24499309 0.027298804 0.31248388 0.26277825 -0.37250414 -0.12889558
0.5805486 0.26917616 -0.6703121 0.3524458 0.568913 -0.100755036 -0.10321834 -0.040738273
0.7267148 0.3036843 0.012856459 0.14591272 -0.44339052 0.019864706 0.65605646 -0.15476029
0.053226784 -0.17064124 0.6409095 0.8673775 0.038785174 0.11953391 -0.46930608 0.53179747
0.93640196 -0.00011668075 -0.15876561 0.47532928 0.21167691 0.27251783 -0.27284053 0.16288817
0.48211014 0.66460717 0.16233535 0.29333007 0.33704537 0.19814143 -0.42386314 -0.3485614
-0.5146945 0.1454383 0.37223306 0.66526115 0.5887589 0.0015856943 0.57376987 -0.23005542
-0.49642488 -0.08543912 -0.055363756 -0.16472504 0.017494498 -0.41757518 -0.24459095 -0.40645292
-0.40070176 0.15549737 -0.307785 0.03130795 -0.49876708 -0.023952974 -0.13371009 -0.4886972
-0.06794427 0.48687053 -0.18807083 0.22156592 0.6673062 0.6003355 -0.0200953 -0.31179234
0.7437486 -0.21730636 -1.3614264 -0.010287978 -0.30051392 -0.1113892 -0.38192976 -0.18644372
-0.18938012 0.25300497 -0.16099897 0.74010205 0.46111217 -0.025256643 -0.039226774 0.016553504
0.4442835 0.37228116 0.17312418 0.31128645 -0.091259226 0.53836083 0.8769539 0.012166867
0.09951893 0.34820104 0.8589316 0.0032238055 0.079562746 -0.1273138 -0.15221345 0.1345767
0.6544072 0.57201034 -0.43554375 0.27114767 0.6533877 0.5643333 0.02002623 0.35203817
0.119916804 0.28453037 0.44576687 0.20303187 0.1390086 -0.039605606 0.46055138 0.32271275
-0.4432697 0.03148051 0.42599764 0.48303097 0.28882346 0.35413682 -0.41525337 0.006816029
-0.2056565 0.042221576 -0.51407415 0.16748974 -0.5423768 0.350389 0.8890489 0.020069769
00000000: 53d6 e03d 1f96 b0be 01e1 f63e a0c0 2a3f
00000010: abec c53e 3875 79be d772 f5be 4345 d53e
00000020: cd85 793e 9d3f d3be fbcf b4be 6525 14be
00000030: de21 f3be 68ea ecbe a7c0 c3be 08d1 5bbe
00000040: 189b 803e a795 2f3f 78df 7a3e bea1 df3c
00000050: e3fd 9f3e df8a 863e ddb8 bebe 34fd 03be
00000060: d59e 143f 75d1 893e 9399 2bbf c773 b43e
00000070: 48a4 113f a858 cebd 2364 d3bd 2ddd 26bd
00000080: fb09 3a3f 827c 9b3e e6a3 523c 256a 153e
00000090: 1504 e3be 4fbb a23c 51f3 273f 7b79 1ebe
000000a0: 5404 5a3d 94bc 2ebe a512 243f 740c 5e3f
000000b0: 34dd 1e3d 32ce f43d e348 f0be e123 083f
000000c0: 0ab8 6f3f 80b2 f4b8 7493 22be 5c5e f33e
000000d0: d5c1 583e 7587 8b3e c1b1 8bbe 28cc 263e
000000e0: 24d7 f63e b223 2a3f 3d3b 263e 5c2f 963e
000000f0: 3691 ac3e 96e5 4a3e 9704 d9be a476 b2be
00000100: 05c3 03bf c7ed 143e 5595 be3e 8e4e 2a3f
00000110: e7b8 163f 12d7 cf3a 95e2 123f a693 6bbe
00000120: 672b febe b5fa aebd 1bc5 62bd aead 28be
00000130: 9f50 8f3c 6acc d5be 0d76 7abe 991a d0be
00000140: c828 cdbe b43a 1f3e ff95 9dbe c43c 003d
00000150: 665e ffbe 0739 c4bc 4ceb 08be 8536 fabe
00000160: 5e26 8bbd 1847 f93e a495 40be 2de2 623e
00000170: 94d4 2a3f 96af 193f e69e a4bc 3fa3 9fbe
00000180: 4f66 3e3f 8f85 5ebe 3843 aebf e88e 28bc
00000190: f6dc 99be 0520 e4bd 4c8c c3be 1aeb 3ebe
000001a0: ddec 41be de89 813e eadc 24be 5477 3d3f
000001b0: e516 ec3e 05e7 cebc 41ac 20bd 379b 873c
000001c0: 2079 e33e a39b be3e 7747 313e f060 9f3e
000001d0: 1ee6 babd 04d2 093f 0d80 603f 8a57 473c
000001e0: 95d0 cb3d 6847 b23e f1e2 5b3f 7b46 533b
000001f0: cbf1 a23d 8c5e 02be d8dd 1bbe 79ce 093e
00000200: 3b87 273f 456f 123f 97ff debe ded3 8a3e
00000210: 6b44 273f 2678 103f 0c0e a43c 593e b43e
00000220: f196 f53d f7ad 913e 8e3b e43e 96e7 4f3e
00000230: 4558 0e3e 7d39 22bd 64cd eb3e 9b3a a53e
00000240: 3ff4 e2be b5f1 003d 5d1c da3e d64f f73e
00000250: abe0 933e 6c51 b53e 179c d4be ff58 df3b
00000260: 9e97 52be 88f0 2c3d 5d9a 03bf 6e82 2b3e
00000270: 35d9 0abf 3066 b33e b598 633f 5b69 a43c

l4.bias f4 [32]
0.97538 0.34401724 -0.023630716 0.77746904 0.023972077 0.4350386 1.0250783 -0.44377476
0.7261771 0.6843607 0.70543486 0.6767403 -0.03786204 0.24498901 -0.4706483 0.10838117
0.26509225 0.23038948 0.9789318 0.68060446 0.21625179 0.20579404 0.22933859 0.62812316
0.23722298 0.05042602 0.1971541 0.27529946 0.26492837 0.44857645 0.07518355 0.7502521
00000000: 81b2 793f 0723 b03e 3495 c1bc 3608 473f
00000010: 1761 c43c 61bd de3e c435 833f 7236 e3be
00000020: bee6 393f 4332 2f3f 6197 343f da3e 2d3f
00000030: 3a15 1bbd 66de 7a3e d0f8 f0be f2f6 dd3d
00000040: 2cba 873e 38eb 6b3e 469b 7a3f 183c 2e3f
00000050: 1c71 5d3e acbb 523e bcd7 6a3e aecc 203f
00000060: 95ea 723e 848b 4e3d c4e2 493e 0df4 8c3e
00000070: b1a4 873e d0ab e53e d5f9 993d 8610 403f

l5.weight f4 [32, 32]
0.26785243 0.61821926 -0.13015413 0.44627059 -0.22038516 0.296575 0.32359353 0.46390063
0.37999865 0.30347046 0.51004976 0.3451988 -0.18838541 0.28386003 -0.4145964 -0.21477252
0.085054405 0.023765367 0.487095 1.2112443 -0.23082773 0.26525941 0.43594328 0.37272805
0.38339177 0.092211746 0.53731674 0.27981904 0.4516152 0.26328126 -0.01498257 0.51557803
0.10080594 0.58327866 -0.19159096 0.5109126 -0.24448885 0.3692038 0.4708863 0.1445437
0.44517973 0.28432664 0.34118056 0.22288626 0.044101704 0.5181121 -0.21469712 -0.04752034
-0.14382598 -0.008047248 0.330854 1.3902032 -0.2501396 0.47871116 0.44301814 0.45906654
0.3459251 0.20361474 0.22855447 0.3025339 0.30089828 0.28252134 -0.02159192 0.40718582
0.14802028 0.5390529 -0.22960453 0.376432 -0.04519653 0.40078357 0.26966178 0.15016861
0.27925608 0.5995163 0.20397314 0.35565385 0.06573753 0.2775432 -0.33590803 -0.17688587
-0.04017041 -0.08791102 0.43425542 1.380961 -0.13002227 0.32787064 0.31181273 0.3945047
0.34799352 0.15850422 0.324958 0.30274063 0.34851816 0.19305642 -0.15500845 0.35121167
0.092202954 0.019060854 0.12663692 0.22335738 -0.018308388 -0.10968808 0.26016688 -0.26200926
-0.24766673 -0.17756493 0.012765999 -0.072670534 0.093788244 -0.49784917 0.33968064 0.31377694
0.2418798 0.082907476 0.0059683714 0.0055944794 0.21388753 -0.2966895 0.2425913 -0.7606448
-0.21853194 0.08863417 0.035984892 -0.11642498 -0.15055606 0.17534085 0.07465328 -0.3077564
0.22277765 0.48504385 -0.2558057 0.45909914 -0.15735978 0.4522881 0.5091242 0.20212935
0.48362952 0.57725126 0.3419132 0.41368592 -0.13503148 0.42798528 -0.20833378 -0.13691431
0.039076105 -0.25838786 0.37734824 1.2620051 -0.284721 0.28326243 0.21553184 0.42337933
0.3580892 0.005152562 0.42576858 0.16710202 0.44882247 0.14541104 -0.04927193 0.525709
-0.046933863 0.037627965 0.14408794 0.16734664 0.080814004 0.028725497 0.11933739 -0.28064847
-0.08292524 -0.05074369 0.036678746 0.13242404 0.14556599 0.112074256 0.26571685 -0.06914796
0.16931473 0.11171126 0.09413882 -0.6279284 0.28748873 0.08728288 -0.004794727 -0.13995546
0.08327619 -0.3873473 0.008783262 -0.14628503 0.031473294 -0.15566318 0.11861006 -0.4329577
0.2935563 0.5166725 -0.2761735 0.5471655 -0.26162946 0.3283292 0.4840024 0.24995258
0.5015511 0.3272229 0.29183236 0.12267099 -0.13597414 0.49779645 -0.12161802 -0.02696006
-0.03607958 -0.20712496 0.5325526 1.2663333 -0.2546818 0.20381843 0.43388373 0.41487342
0.42807782 0.13726225 0.24980962 0.226034 0.3578549 0.26298562 -0.031397376 0.3698849
0.3677692 0.43149385 -0.17726551 0.40808532 -0.17367515 0.32025477 0.4878581 0.14613691
0.5096731 0.5098922 0.28616005 0.1725288 -0.019270614 0.2139781 -0.13909358 -0.1298245
-0.017496003 -0.23657641 0.47928703 1.4220278 -0.038170557 0.34466034 0.3993593 0.39659348
0.4476888 0.21978272 0.21582769 0.17426755 0.2513409 0.12412297 0.12648624 0.40801957
00000000: f423 893e 9e43 1e3f 2047 05be 947d e43e
00000010: a6ac 61be aed8 973e 0dae a53e 6284 ed3e
00000020: 2f8f c23e 7b60 9b3e 9f92 023f e6bd b03e
00000030: 1be8 40be 1a56 913e fb45 d4be 54ed 5bbe
00000040: 0131 ae3d 96af c23c 8464 f93e 0e0a 9b3f
00000050: 1b5e 6cbe 15d0 873e f533 df3e 36d6 be3e
00000060: ed4b c43e 83d9 bc3d 978d 093f 7144 8f3e
00000070: 1c3a e73e cdcc 863e 7479 75bc ecfc 033f
00000080: 5873 ce3d c051 153f 6c30 44be 2bcb 023f
00000090: 495b 7abe 4808 bd3e 0218 f13e 4403 143e
000000a0: 99ee e33e 4393 913e 38af ae3e 4c3c 643e
000000b0: fda3 343d ffa2 043f 90d9 5bbe b0a4 42bd
000000c0: 1e47 13be 9bd8 03bc b265 a93e 2ef2 b13f
000000d0: 4c12 80be a119 f53e 46d3 e23e c50a eb3e
000000e0: 181d b13e 6280 503e 2f0a 6a3e b9e5 9a3e
000000f0: 570f 9a3e a3a6 903e 8ae1 b0bc a97a d03e
00000100: a192 173e 5fff 093f 731d 6bbe b2bb c03e
00000110: ff1f 39bd 8133 cd3e 1c11 8a3e cdc5 193e
00000120: a7fa 8e3e e679 193f 56de 503e 4318 b63e
00000130: 66a1 863d 241a 8e3e 23fc abbe 9221 35be
00000140: ba89 24bd b10a b4bd ba56 de3e 54c3 b03f
00000150: 8f24 05be a9de a73e eba5 9f3e 85fc c93e
00000160: 352c b23e ee4e 223e e560 a63e d200 9b3e
00000170: f970 b23e 95b0 453e 89ba 1ebe 04d2 b33e
00000180: e7d4 bc3d 8225 9c3c 1cad 013e ccb7 643e
00000190: 79fb 95bc 25a4 e0bd 9834 853e 1426 86be
000001a0: 599c 7dbe 95d3 35be 7b28 513c 4ad4 94bd
000001b0: 0d14 c03d 16e6 febe 9fea ad3e 5fa7 a03e
000001c0: 57af 773e 65cb a93d 5492 c33b e551 b73b
000001d0: 5505 5b3e b0e7 97be db69 783e 9eb9 42bf
000001e0: d6c6 5fbe d585 b53d e564 133d 3870 eebd
000001f0: 5e2b 1abe 8d8c 333e d2e3 983d 3f92 9dbe
00000200: d31f 643e ab57 f83e f7f8 82be 0b0f eb3e
00000210: ec22 21be 4e92 e73e f755 023f fffa 4e3e
00000220: 4a9e f73e bdc6 133f 3f0f af3e a4ce d33e
00000230: b145 0abe e320 db3e 7355 55be 4433 0cbe
00000240: 440e 203d 6a4b 84be ca33 c13e 6289 a13f
00000250: f3c6 91be c607 913e 61b4 5c3e 2dc5 d83e
00000260: 7857 b73e d3d6 a83b 57fe d93e cb1c 2b3e
00000270: 0fcc e53e a2e6 143e 5dd1 49bd dd94 063f
00000280: b93d 40bd c81f 1a3d ca8b 133e eb5c 2b3e
00000290: d081 a53d bc51 eb3c 2967 f43d 28b1 8fbe
000002a0: b5d4 a9bd 9ed8 4fbd 743c 163d 2b9a 073e
000002b0: 400f 153e 3087 e53d 0a0c 883e 729d 8dbd
000002c0: d760 2d3e e0c8 e43d dbcb c03d eabf 20bf
000002d0: b931 933e 5ec1 b23d 161d 9dbb 7c50 0fbe
000002e0: b58c aa3d 6352 c6be ace7 0f3c becb 15be
000002f0: 24ea 003d 2b66 1fbe d5e9 f23d a2ac ddbe
00000300: 034d 963e a644 043f 9d66 8dbe 0a13 0c3f
00000310: 4cf4 85be c41a a83e 2acf f73e 92f3 7f3e
00000320: a765 003f c389 a73e 0d6b 953e ee3a fb3d
00000330: ce3c 0bbe 2ddf fe3e de12 f9bd 58db dcbc
00000340: 2fc8 13bd 9118 54be 5e55 083f 3617 a23f
00000350: a765 82be c7b5 503e 0226 de3e 4a6a d43e
00000360: 042d db3e 7a8e 0c3e 18ce 7f3e 7575 673e
00000370: c238 b73e 0da6 863e 899a 00bd 8e61 bd3e
00000380: 3f4c bc3e c3ec dc3e 1785 35be 8ff0 d03e
00000390: e6d7 31be 6ff8 a33e 89c8 f93e eaa4 153e
000003a0: f079 023f 4c88 023f 9283 923e 64ab 303e
000003b0: 68dd 9dbc 131d 5b3e 8c6e 0ebe b7f0 04be
000003c0: c753 8fbc 1641 72be 1c65 f53e 0205 b63f
000003d0: bb58 1cbd 5277 b03e d278 cc3e 4d0e cb3e
000003e0: 7737 e53e b90e 613e ef01 5d3e 3173 323e
000003f0: c1af 803e 2f34 fe3d 9c85 013e f1e7 d03e

l5.bias f4 [32]
0.6931034 0.46539438 0.6842015 0.14572917 0.7224559 0.044042174 0.5333828 0.6726103
0.53307706 0.6121896 -0.115450196 -0.038982976 0.07040615 0.5972386 -0.104390256 0.07665042
0.65544075 0.1821217 0.06366232 -0.1058984 0.55176014 -0.1738565 0.734076 -0.15650833
0.47825134 0.57122546 0.5106983 -0.15327583 0.7054949 -0.14530714 -0.37675136 -0.06628287
00000000: 396f 313f 2c48 ee3e d427 2f3f 073a 153e
00000010: dff2 383f 9165 343d c68b 083f 3030 2c3f
00000020: bd77 083f 75b8 1c3f 2771 ecbd 9dac 1fbd
00000030: 1931 903d a1e4 183f 8fca d5bd e5fa 9c3d
00000040: f7ca 273f 1c7e 3a3e 6461 823d 43e1 d8bd
00000050: 2740 0d3f 7007 32be 68ec 3b3f b843 20be
00000060: 5cdd f43e d53b 123f 20bd 023f 57f4 1cbe
00000070: 509b 343f 65cb 14be 8ee5 c0be 50bf 87bd

l6.weight f4 [1, 32]
-0.4782888 -0.4756714 -0.6014039 0.8592509 -0.47239688 0.46376327 -0.5369367 -0.49425316
-0.4094441 -0.5298931 0.47609717 0.5933374 0.66536474 -0.57315814 0.64872456 0.110048555
-0.49974132 0.5955059 0.59579754 0.11603028 -0.6252749 0.6516517 -0.48154056 0.061433118
-0.54711545 -0.6221152 -0.6808793 0.09418459 -0.5302978 0.50565135 0.26607972 0.043778375
00000000: 45e2 f4be 348b f3be 9bf5 19bf def7 5b3f
00000010: 01de f1be 6172 ed3e af74 09bf c00e fdbe
00000020: a8a2 d1be 13a7 07bf 02c3 f33e f6e4 173f
00000030: 5855 2a3f 7eba 12bf d012 263f 2361 e13d
00000040: 18de ffbe 1373 183f 3086 183f 49a1 ed3d
00000050: 0412 20bf a5d2 263f 7c8c f6be 4ba1 7b3d
00000060: c20f 0cbf f142 1fbf 1b4e 2ebf dae3 c03d
00000070: 99c1 07bf 5e72 013f 9a3b 883e f450 333d
