model/CartPoleUp_q_critic90.pth (torch, 14610 bytes, 10 tensors)

l1.weight f4 [32, 5]
0	0x3f0f5f1a	0.5600449
1	0x3e1012e1	0.14069702
2	0x3f4d0c32	0.80096734
3	0x3fc2eef4	1.5229173
4	0xbe362c69	-0.17790379
5	0x3ec05e75	0.37572065
6	0x3f3fa914	0.7486737
7	0x3f009581	0.50228125
8	0xbf9f2958	-1.2434492
9	0x3da2f691	0.07957185
10	0x3d79fc49	0.061031613
11	0xbfb9fa43	-1.4529499
12	0x3ef21b11	0.47286275
13	0x3f783627	0.9695763
14	0xbe333c2f	-0.17503427
15	0x3f5676a5	0.8377479
16	0x3e458d49	0.19292177
17	0x3ecf84f8	0.40531135
18	0x3faf8dfb	1.3715204
19	0x3ea91d25	0.33030048
20	0x3eb68dd3	0.35655078
21	0x3e49c8d1	0.19705512
22	0x3f190aa4	0.5978186
23	0xbfb04364	-1.3770566
24	0xbe85e521	-0.26151374
25	0x3f1ac514	0.6045697
26	0xbede4ffe	-0.43420404
27	0x3f4d7a91	0.80265146
28	0x3f8f5ef2	1.120085
29	0x3d92c961	0.07167316
30	0x3ec3dfcd	0.38256684
31	0xbe66537d	-0.22492786
32	0x3e6bcf7a	0.23028365
33	0xbf4e5d05	-0.80610687
34	0xbcb014a0	-0.02149421
35	0x3f4d2bf6	0.80145204
36	0xbf06fd7d	-0.5273054
37	0x3e88a74b	0.26690134
38	0x3fc0f9db	1.507625
39	0xbda7a1d8	-0.08185166
40	0x3eea5f6f	0.45775935
41	0x3f4bd913	0.79628104
42	0x3f0ae821	0.5426045
43	0x3e56f417	0.2099155
44	0x3d538bf9	0.05164716
45	0xbf5be233	-0.8589203
46	0x3d2b4948	0.041817933
47	0x3eedeb26	0.46468467
48	0xbf8c9065	-1.0981566
49	0x3da367fc	0.07978818
50	0xbe8dd3cf	-0.2770066
51	0xbfa69fe3	-1.3017544
52	0x3eb62302	0.35573584
53	0x3f9d8987	1.2307595
54	0xbd126c3f	-0.035747763
55	0x3f9244a8	1.1427202
56	0x3f8ce2b3	1.1006683
57	0x3e012cb6	0.12614712
58	0xbfe794d5	-1.8092295
59	0xbde8148f	-0.11332046
60	0x3ec5c12d	0.38623944
61	0x3f1b2193	0.60598105
62	0x3edd2c7b	0.43197998
63	0x3d7c1c10	0.0615502
64	0xbe942d55	-0.28940836
65	0x3f52fc70	0.8241644
66	0x3d4c671f	0.04990303
67	0xbe3fc1c3	-0.18726258
68	0xbf8ad1b0	-1.0845242
69	0xbc8cc404	-0.017183311
70	0xbcdd4cf3	-0.027014231
71	0x3dfc1948	0.123095095
72	0x3eacecab	0.33774313
73	0xbf449c79	-0.7680126
74	0xbeb53dfd	-0.35398856
75	0xbf8d4fef	-1.1040019
76	0xbe58c520	-0.21168947
77	0x3e1c1699	0.15242995
78	0xbe49f947	-0.19723998
79	0xbf01b401	-0.5066529
80	0xbede511a	-0.4342125
81	0xbd825588	-0.0636397
82	0xbebfb151	-0.3743997
83	0xbf14a148	-0.58058596
84	0x3ed29381	0.41128162
85	0xbd7acf3d	-0.061232794
86	0xbcfbd8f8	-0.030743107
87	0x3f08579c	0.5325868
88	0xbe92c9b9	-0.28669527
89	0x3d05b745	0.032645483
90	0x3f32604f	0.69678205
91	0xbf040fbd	-0.51586515
92	0x3f11da01	0.5697327
93	0x3eb0040e	0.34378093
94	0x3ed30339	0.41213396
95	0x3edf418d	0.436047
96	0x3e07c758	0.13259637
97	0x3f408acc	0.7521179
98	0x3f0b33b0	0.54375744
99	0x3d2d0b57	0.042247143
100	0x3f9d58fa	1.2292778
101	0xbe8ed824	-0.27899277
102	0x3f2f2fb2	0.6843215
103	0x3fbf9fb2	1.497061
104	0x3ebd3bc4	0.3695966
105	0x3ef82cb3	0.48471603
106	0x3e8ec2c2	0.27882963
107	0xbe8ab575	-0.27091566
108	0xbf52e5ff	-0.82382196
109	0xbdca52f1	-0.09879101
110	0x3f11c04f	0.56934065
111	0x3f5381e0	0.8262005
112	0x3f203bb8	0.62591124
113	0xbf61a653	-0.88144416
114	0x3e866901	0.26251987
115	0x3f52254a	0.8208815
116	0x3eff9cc3	0.49924287
117	0x3eed74ec	0.46378267
118	0xbe71a64f	-0.23598598
119	0xbec6fed2	-0.38866287
120	0xbe8809ab	-0.26569876
121	0x3e70afc4	0.2350455
122	0x3edb118e	0.4278683
123	0xbfd5ca30	-1.6702328
124	0xbe067f0d	-0.13134404
125	0x3f5ab7cf	0.8543672
126	0x3c288bd4	0.010287244
127	0x3eeaa5c5	0.45829597
128	0x3f84bb23	1.036961
129	0xbd84e703	-0.064893745
130	0x3ed8f49c	0.42374122
131	0x3f5e73e5	0.8689559
132	0xbdeef7ff	-0.11668395
133	0xbf473be3	-0.77825755
134	0x3b26939d	0.0025417574
135	0x3ebb44b0	0.36575842
136	0x3f2d7d1a	0.67769015
137	0x3eb675bc	0.356367
138	0xbf896f0f	-1.0737017
139	0xbe3d647c	-0.18495363
140	0x3f971f94	1.1806512
141	0x3e571bd1	0.21006705
142	0x3f303817	0.68835586
143	0x3f4a6054	0.79053235
144	0x3edfe2b7	0.43727657
145	0x3ea4631b	0.3210686
146	0x3dc36733	0.09541168
147	0x3eb83da7	0.35984537
148	0xbf9fbc81	-1.2479402
149	0x3d3b3747	0.045707013
150	0xbf0f36c9	-0.5594297
151	0x3f2f1541	0.68391806
152	0x3e08c7b7	0.13357435
153	0xbfb638a7	-1.4236039
154	0xbcb316e5	-0.021861503
155	0x3da8e9e8	0.08247739
156	0x3edd1248	0.4317801
157	0x3f147c93	0.58002585
158	0xbf965491	-1.1744558
159	0x3e075bd5	0.13218625

l1.bias f4 [32]
0	0xbd3d2142	-0.046174295
1	0x3ec89010	0.3917241
2	0x3e4fcd62	0.20293191
3	0x3ef97998	0.4872558
4	0x3f45442e	0.7705716
5	0x3f2ac49d	0.6670626
6	0x3edd2c15	0.43197694
7	0x3f01a649	0.50644356
8	0xbe6cabd9	-0.2311243
9	0x3e3efdf9	0.1865157
10	0x3e738576	0.2378138
11	0x3ef42d14	0.47690642
12	0x3e2dcb34	0.16972047
13	0x3d4eb8c3	0.05046917
14	0x3e33c23a	0.1755456
15	0xbe5e1150	-0.21686292
16	0x3d9a057f	0.075205795
17	0x3f3131d9	0.69216686
18	0x3f164279	0.5869518
19	0x3dbed9a0	0.093188524
20	0xbe98bf31	-0.29833367
21	0xbed8e2cb	-0.4236053
22	0x3ea71ebb	0.32640633
23	0x3f164799	0.58703
24	0x3e03a0c1	0.12854291
25	0x3d5e31b0	0.054246604
26	0xbc6a159e	-0.0142873805
27	0x3ef5ddfd	0.48020926
28	0xbe6b73cd	-0.22993393
29	0xbc4bffbe	-0.01245111
30	0x3f86faa4	1.054524
31	0x3e63c7e4	0.22244221

l2.weight f4 [32, 32]
0	0xbe97fd2b	-0.2968534
1	0xbe9ad3e4	-0.30239785
2	0x3ea97d47	0.33103392
3	0xbefd8b80	-0.49520493
4	0x3e7bfc74	0.24608022
5	0x3e39599e	0.18100592
6	0x3ee49530	0.4464507
7	0x3e36e4fd	0.1786079
8	0xbf77ad51	-0.96748835
9	0x3eb294f3	0.34879264
10	0x3f0711fe	0.5276183
11	0x3ebd614d	0.36988297
12	0xbf2d2bd0	-0.6764498
13	0x3f3e8f07	0.7443699
14	0x3dbf810e	0.09350787
15	0x3e232480	0.15931892
16	0xbeb8ba30	-0.3607955
17	0x3e1afeb1	0.1513622
18	0x3ea13ac2	0.3149014
19	0xbe2583a3	-0.16163497
20	0xbdf5c5df	-0.120006315
21	0xbd5fc9ae	-0.054635696
22	0xbef42541	-0.47684672
23	0xbe998718	-0.2998588
24	0x3da7fcd6	0.082025215
25	0xbe173adc	-0.14768547
26	0x3e00abfa	0.12565604
27	0xbdbd1281	-0.09232045
28	0xbec97e32	-0.39354092
29	0x3df5162a	0.11967118
30	0x3dc140b2	0.09436168
31	0x3e06f216	0.13178286
32	0x3eefa801	0.46807864
33	0xbec680b6	-0.38770074
34	0x3ec86feb	0.39147887
35	0x3e7d8fc0	0.24761868
36	0xbe7e19d1	-0.24814536
37	0x3ebdb8b8	0.37054992
38	0xbdb2092e	-0.08693157
39	0x3f493373	0.7859413
40	0x3e410ebe	0.1885328
41	0xbeff3132	-0.4984222
42	0x3ef63fbf	0.4809551
43	0x3ec6b5fc	0.38810718
44	0x3e32bd36	0.1745499
45	0x3f511471	0.81671816
46	0xbed7f265	-0.4217712
47	0xbdfc4008	-0.123169005
48	0xbe992632	-0.29911953
49	0x3d76b561	0.06023157
50	0x3eb18485	0.34671417
51	0x3e263a0b	0.16233079
52	0x3eb67cda	0.3564213
53	0x3f3846c8	0.71983004
54	0x3d946633	0.072460555
55	0xbc47e1eb	-0.012199859
56	0xbf955080	-1.1665192
57	0x3f1ae6df	0.6050853
58	0x3e3daf67	0.18523942
59	0xbe966141	-0.29371074
60	0x3e71817e	0.23584554
61	0xbeb4e831	-0.35333398
62	0xbff97945	-1.9490134
63	0xbe88db6e	-0.26729912
64	0x3e31d28b	0.17365472
65	0x3e5ede6a	0.21764532
66	0x3eba0b25	0.36336628
67	0x3e458c4d	0.19291802
68	0x3eddd610	0.4332738
69	0x3ea5efba	0.3240946
70	0x3e9d0564	0.30668175
71	0x3e2bdaaa	0.16782632
72	0x3e0ac5ec	0.13552064
73	0x3dde6a72	0.108601466
74	0xbd1aa08b	-0.037750762
75	0xbfcfb9ee	-1.6228616
76	0x3ea81d0f	0.3283467
77	0xbf284196	-0.65725076
78	0x3e2edd80	0.17076683
79	0x3dd27ca9	0.10277683
80	0xbe829e80	-0.2551155
81	0x3e5c6103	0.21521382
82	0x3e522112	0.20520428
83	0x3ec459bd	0.38349715
84	0x3eb93d1e	0.3617944
85	0xbf78554a	-0.9700514
86	0x3e744f98	0.23858488
87	0x3e89959a	0.2687195
88	0x3e1d4990	0.15360093
89	0x3efb316a	0.49061137
90	0xbf0a45f9	-0.5401302
91	0x3f20007c	0.6250074
92	0x3e79b7d6	0.24386534
93	0x3e8b0db1	0.27158883
94	0x3ddc72bc	0.10764071
95	0x3e648357	0.22315727
96	0x3da7e1ca	0.08197363
97	0x3dba2470	0.09088981
98	0xbc203d99	-0.009780311
99	0x3e331721	0.17489292
100	0xbdf2072e	-0.11817776
101	0x3d9bb693	0.07603183
102	0x3e26ec97	0.1630119
103	0xbd498d87	-0.049207237
104	0x3e239f6d	0.15978785
105	0x3bffd847	0.0078077647
106	0xbe080aa6	-0.13285312
107	0xbe005e83	-0.12536053
108	0x3da9aa8f	0.082844846
109	0xbd9cabfe	-0.076499924
110	0x3d2aa262	0.041658767
111	0x3e34343b	0.1759805
112	0x3d5366cb	0.051611703
113	0xbc26ba65	-0.010176276
114	0x3d4d3548	0.05009964
115	0xbd93fb3b	-0.07225653
116	0xbe2b5a0f	-0.16733573
117	0xbe081279	-0.13288297
118	0xbe0a3077	-0.1349505
119	0x3ca6706a	0.020317275
120	0x3d173659	0.036917064
121	0xbdbd02bd	-0.09229038
122	0xbe541111	-0.20709635
123	0x3dc89c52	0.09795441
124	0xbe0263f8	-0.12733448
125	0xbd83133f	-0.06400155
126	0xbe0a782e	-0.13522407
127	0xbd9604bc	-0.07325122
128	0x3d5da33a	0.054110743
129	0xbe38eceb	-0.18059127
130	0xbe1edc89	-0.15513815
131	0x3de4af3d	0.111662365
132	0xbde69691	-0.11259187
133	0xbdc6c4c0	-0.09705496
134	0xbdb88134	-0.090090185
135	0x3d497278	0.04918143
136	0xbe04d438	-0.1297158
137	0xbb0ed678	-0.0021795314
138	0x3d3f5714	0.046713904
139	0xbc5240a0	-0.012832791
140	0x3d060116	0.03271588
141	0xbe0a1714	-0.13485366
142	0x3d3699d8	0.04458031
143	0x3d874df4	0.06606665
144	0xbcb5a528	-0.02217348
145	0xbe2f2c65	-0.17106779
146	0x3d3723d6	0.04471191
147	0x3dbe5902	0.09294321
148	0xbd619c4a	-0.05508069
149	0x3daaa47a	0.08332153
150	0x3d40762c	0.046987697
151	0xbdb88a6f	-0.09010779
152	0xbc7ce3ca	-0.0154351685
153	0x3e1dd476	0.15413079
154	0x3a5ac700	0.00083456933
155	0xbe169763	-0.14706187
156	0xbd13c23a	-0.0360739
157	0x3d7fe396	0.062472902
158	0xbd283054	-0.041061714
159	0xbdea025a	-0.1142623
160	0x3ee1efca	0.44128257
161	0xbf0a9690	-0.5413599
162	0x3eb58267	0.35451052
163	0x3e95aac2	0.2923184
164	0xbec30947	-0.38093016
165	0x3e6bc2ba	0.23023501
166	0xbefc3734	-0.49260867
167	0x3e9ae2a3	0.30251035
168	0x3db08856	0.08619754
169	0xbf0327dc	-0.51232696
170	0x3f0f2f75	0.5593179
171	0xbf0891a8	-0.53347254
172	0x3d4735aa	0.048635162
173	0xbeb3b22c	-0.35096872
174	0xbee2eb3e	-0.443201
175	0x3e5a6d04	0.21330649
176	0xbd9273a0	-0.0715096
177	0xbe4b6b71	-0.19865204
178	0x3df7e140	0.1210351
179	0x3d99656a	0.07490046
180	0x3e269d1b	0.16270868
181	0xbe987b4e	-0.29781574
182	0xbd809758	-0.062788665
183	0x3ce68f52	0.028144512
184	0xbf8fd6f5	-1.1237475
185	0x3ed5a012	0.41723686
186	0xbd8e3922	-0.06944491
187	0xbf2fb17d	-0.686302
188	0x3e9ed6c2	0.31023222
189	0xbf84d1bb	-1.0376505
190	0xbff2c8ca	-1.8967526
191	0xbe810cf8	-0.25205207
192	0x3e5a54ca	0.21321407
193	0x3e2ff28c	0.17182368
194	0x3e0ea257	0.13929115
195	0x3ea84ed5	0.32872644
196	0x3ee5411d	0.4477624
197	0x3eda793b	0.42670617
198	0x3eb7d43f	0.35904118
199	0x3ec78ae8	0.38973165
200	0x3e0d8ad3	0.13822488
201	0x3d4d7165	0.05015697
202	0xbc803e03	-0.01565457
203	0xbfb82afe	-1.438812
204	0x3ea47b8a	0.32125503
205	0xbf3a2629	-0.7271448
206	0x3ea27ca0	0.31735706
207	0xbb2e3681	-0.002658278
208	0xbeabb5e7	-0.33537218
209	0x3eaa778a	0.33294326
210	0x3ea11994	0.31464827
211	0x3e19482d	0.14968939
212	0x3dc37a8c	0.09544858
213	0xbf399f0a	-0.725083
214	0x3ed44546	0.414591
215	0x3e99e59a	0.30057985
216	0x3e0bff4c	0.13671607
217	0x3ed9659e	0.4246034
218	0xbef6eae0	-0.4822607
219	0x3ea222e7	0.31667253
220	0x3e080f4c	0.13287085
221	0x3ea9f431	0.33194116
222	0x3ea46b40	0.32113075
223	0x3e6a3f05	0.22875603
224	0xbf4a4058	-0.7900443
225	0x3e27a332	0.16370848
226	0xbf2dced2	-0.6789371
227	0xbf2cf75d	-0.67564946
228	0x3e4f8da0	0.2026887
229	0xbe9872b7	-0.2977502
230	0x3d93d091	0.07217515
231	0xbfd7cad2	-1.6858771
232	0xbd1390fd	-0.036026943
233	0x3e804c53	0.2505823
234	0xc00efbaa	-2.2341104
235	0x3fde5687	1.7370156
236	0xbdcedc17	-0.101005726
237	0x3e564e17	0.20928226
238	0x3bb76b07	0.0055974755
239	0x3e5a67ec	0.21328706
240	0xbe6fdfff	-0.23425291
241	0xbddf3dc3	-0.10900452
242	0xbecb796c	-0.39741075
243	0xbdcaa3b2	-0.09894504
244	0xbf60b6f7	-0.8777918
245	0x3eebe433	0.4607254
246	0x3e4fba2b	0.20285861
247	0xbdde6ffc	-0.10861203
248	0x3ef83e8f	0.48485228
249	0xbf082151	-0.53175837
250	0x3eea205b	0.4572781
251	0x3ee2b35d	0.44277468
252	0xbf01b999	-0.50673825
253	0x3eb37496	0.35049886
254	0x3f349ae6	0.70548856
255	0x3e6eb2b9	0.23310365

l2.bias f4 [32]
0	0x3e8d949e	0.27652448
1	0xbca0c9c0	-0.019627452
2	0x3ead4fec	0.33850038
3	0xbdce3fd2	-0.100707665
4	0x3de2e827	0.11079436
5	0x3d83a16b	0.064272724
6	0x3e3a4b9a	0.18192902
7	0xbe3013f8	-0.17195117
8	0xbd0410b2	-0.032242484
9	0x3edda2c6	0.4328825
10	0x3e5c00c8	0.21484673
11	0x3dd62745	0.10456709
12	0x3e820166	0.25391692
13	0x3caca3c5	0.021074185
14	0x3ef67ab0	0.48140478
15	0xbdfa8bea	-0.12233718
16	0xbce448e0	-0.02786678
17	0x3d95dafe	0.0731716
18	0xbc951808	-0.018199936
19	0x3dc1f030	0.0946964
20	0xbebd10e4	-0.3692695
21	0x3ecdef20	0.402215
22	0x3e15c532	0.14626005
23	0xbe2c5c69	-0.16832127
24	0x3ea00e5a	0.3126095
25	0xbed30329	-0.41213349
26	0xbdf8b0d7	-0.121431045
27	0x3ec58e28	0.3858502
28	0x3e4af1b1	0.1981876
29	0x3e0cccca	0.13749996
30	0x3d401181	0.046891693
31	0x3ef08d67	0.4698288

l3.weight f4 [1, 32]
0	0x3f727ba4	0.9471991
1	0xbfa471d8	-1.2847242
2	0x3f1772ad	0.59159356
3	0x3dc587c7	0.09645038
4	0x3e2d1e46	0.1690608
5	0xbfc61d0e	-1.5477617
6	0x3f1d43c3	0.6143152
7	0xc0043899	-2.0659544
8	0xbff3c8ed	-1.9045693
9	0x3f00abeb	0.50262326
10	0x3f23e1f8	0.64016676
11	0xbfcb0ee3	-1.5863918
12	0x3f18560d	0.59506303
13	0x3f2b6c85	0.6696246
14	0x3f13f58c	0.5779655
15	0x3e879b7e	0.2648582
16	0x3d449a08	0.04799846
17	0xc02b1378	-2.6730633
18	0xbecf6479	-0.40506342
19	0x3f42eaaf	0.7613935
20	0xbf965e48	-1.1747522
21	0x3efd5c57	0.49484512
22	0xc016ec8b	-2.3581874
23	0xbf9bfb49	-1.2186061
24	0x3f061cb3	0.5238754
25	0xbf84408e	-1.03322
26	0xbff0f59f	-1.8824958
27	0x3f0c5fb0	0.5483351
28	0xbfd91e5f	-1.6962394
29	0x3f5168cc	0.8180053
30	0xbf3b2a5a	-0.731115
31	0x3ef4f01e	0.47839445

l4.weight f4 [32, 5]
0	0x3f0a8ab1	0.54117876
1	0xbf1a9aab	-0.60392255
2	0x3ee2e1d2	0.44312912
3	0x400df996	2.2183585
4	0x3dff5bba	0.12468667
5	0x3dfb439a	0.12268753
6	0x3f506b6a	0.814139
7	0x3f0b9c53	0.54535407
8	0xc01cf478	-2.4524212
9	0xbe814c20	-0.2525339
10	0xbf1b9b25	-0.60783607
11	0xbf6ccd32	-0.92500603
12	0xbdee55f3	-0.11637487
13	0xbf2b9d90	-0.67037296
14	0xbe41fbfc	-0.1894378
15	0xbddc2ba3	-0.107505105
16	0x3f2a2449	0.66461617
17	0x3f0a1f87	0.53954357
18	0xc030954c	-2.7591124
19	0xbd305030	-0.043045223
20	0xbd8b60a1	-0.0680554
21	0x3e8b5af2	0.27217823
22	0xbea9b281	-0.33144
23	0x3e928e2d	0.28624097
24	0x3ea03cb1	0.31296304
25	0xbf243581	-0.6414414
26	0xbf58f2e0	-0.847456
27	0xbdbbfd51	-0.09179176
28	0x3e640ee0	0.222713
29	0xbd3db12c	-0.046311542
30	0xbe476297	-0.19471203
31	0xbdf13f3f	-0.11779641
32	0x3f11f6ff	0.5701751
33	0xc0265b55	-2.5993245
34	0xbaef71a9	-0.0018268126
35	0xbe6bec34	-0.23039323
36	0xbfbf8abb	-1.4964212
37	0x3ef9e7de	0.48809713
38	0x3f9879dc	1.1912189
39	0x3cdf3bfe	0.027250286
40	0x3e1b82e5	0.15186651
41	0xbd52c4d8	-0.051457256
42	0x3f266499	0.6499725
43	0xbf1742ed	-0.59086496
44	0x3dfa0801	0.12208558
45	0x3e9bb6d7	0.30412933
46	0xbf471afe	-0.7777556
47	0x3f1c7dc3	0.611294
48	0x3f875e77	1.0575703
49	0x3b07da68	0.0020729546
50	0x3ee8b607	0.45451376
51	0x3eb74ec8	0.35802293
52	0xbe58b9ce	-0.21164629
53	0x3fe270fc	1.769073
54	0x3ddcda5f	0.107838385
55	0x3f51e69f	0.81992525
56	0x3f8b30b6	1.087424
57	0x3f022e39	0.5085178
58	0xbf14abf0	-0.58074856
59	0x3d8bcb93	0.06825938
60	0x3eeff23b	0.46864495
61	0xbe042b5d	-0.12907167
62	0xbddac1a5	-0.10681466
63	0x3f912336	1.133887
64	0xbd9532ba	-0.07285066
65	0x3f16b1d6	0.58865106
66	0x3f0284c4	0.50983834
67	0x3f05079e	0.5196475
68	0x3f3020a6	0.6879982
69	0x3ddfca21	0.10927225
70	0x3f48323d	0.7820166
71	0xbefb5fd7	-0.49096557
72	0x3d220f1a	0.039565183
73	0x3f85b677	1.0446309
74	0x3d6c8a07	0.05774882
75	0x3cfb4e00	0.030676842
76	0x3dfab778	0.12242025
77	0xbe9f4b0c	-0.31111944
78	0xbd53f920	-0.051751256
79	0xbebcac9d	-0.36850443
80	0xbf071624	-0.5276816
81	0xbca8f3c9	-0.020624058
82	0xbe95964e	-0.29216236
83	0x3d73cccd	0.059521485
84	0xbe69a193	-0.22815542
85	0xbf0ae2ad	-0.5425213
86	0xbecd33a4	-0.4007846
87	0xbe85659c	-0.26054084
88	0xbe273dae	-0.16332123
89	0x3e30dca2	0.17271665
90	0xbe32946b	-0.1743943
91	0x3dcc9dfd	0.099910714
92	0x3f255604	0.64584374
93	0xbeb8f36e	-0.36123222
94	0x3cd5a166	0.026077937
95	0xbf20be25	-0.6279014
96	0x3ed46f7f	0.41491315
97	0xbe880ed1	-0.26573804
98	0xbf21f657	-0.6326651
99	0x3c9b44d7	0.018953724
100	0xbe16d234	-0.14728624
101	0xbe277f06	-0.1635705
102	0xbec5e519	-0.3865135
103	0x3cc9dc30	0.024641126
104	0xbd4ffd88	-0.050778896
105	0x3e925f9f	0.28588578
106	0x3cb79999	0.022412108
107	0x3f018bfe	0.50604236
108	0xbff71934	-1.9304566
109	0xbe84c137	-0.2592866
110	0xbec53b3f	-0.38521764
111	0xbea5f5a4	-0.3241397
112	0x3e368702	0.17824939
113	0xbf62f601	-0.8865662
114	0x3e9669e2	0.29377657
115	0x3f12f511	0.5740519
116	0xbe8309b3	-0.25593337
117	0x3f1a29e1	0.6022015
118	0x3f00660d	0.5015572
119	0x3d0b45c1	0.03400207
120	0x3f2f2d24	0.68428254
121	0x3f825780	1.0182953
122	0x3f4cfa47	0.8006939
123	0xc015ec6c	-2.342555
124	0xbe8202f5	-0.2539288
125	0xbca60080	-0.02026391
126	0xbda47c50	-0.08031523
127	0xbe308ec6	-0.17241964
128	0x3e89a8ae	0.26886505
129	0x3ed17642	0.40910536
130	0xbe4005cf	-0.18752216
131	0x3cebaf44	0.028770097
132	0x3f1b4fec	0.60668826
133	0x3f67cdc3	0.9054834
134	0x3d56442b	0.052311104
135	0x3f24271e	0.6412219
136	0xbeb27702	-0.3485642
137	0x3e0c6fc8	0.13714516
138	0x3f81c6b5	1.0138766
139	0x3dcf3c3c	0.10118911
140	0x3ead5ebb	0.33861336
141	0xbe547a03	-0.20749669
142	0x3f01c80c	0.5069587
143	0x3f10e1e6	0.56594694
144	0xbeb46357	-0.3523204
145	0x3eed4f6f	0.46349666
146	0x3f07a4b6	0.52985704
147	0x3edd97d3	0.43279895
148	0xbef05c1b	-0.4694527
149	0x3e6dfd93	0.23241262
150	0xbf08d516	-0.53450143
151	0xbf1af8b1	-0.6053572
152	0xbe3e5960	-0.18588781
153	0xbe038767	-0.1284462
154	0xbd8994e2	-0.0671785
155	0x3e45e99c	0.19327396
156	0xbfa1c3a7	-1.2637833
157	0x3e6fe034	0.2342537
158	0xbf178683	-0.59189624
159	0xbe752113	-0.23938398

l4.bias f4 [32]
0	0x3f13fb9d	0.57805806
1	0x3f456c7e	0.7711867
2	0xbc4c235b	-0.012459601
3	0x3f36e423	0.7144186
4	0x3e55da72	0.20884112
5	0x3b8a5e7d	0.0042226897
6	0x3f6a1317	0.9143538
7	0x3ca42ed2	0.020041857
8	0x3f2824af	0.65680975
9	0x3f0de406	0.5542606
10	0xbe09d182	-0.13458827
11	0x3e90a890	0.28253603
12	0x3e9a7184	0.3016473
13	0xbe1e93ba	-0.1548604
14	0xbe8696c6	-0.26286906
15	0xbce3b710	-0.027797252
16	0x3de60018	0.11230487
17	0x3f0858dc	0.5326059
18	0x3f447c8c	0.76752543
19	0x3ef3ec81	0.47641376
20	0xbe51c134	-0.20483857
21	0xbb5d13e2	-0.0033733775
22	0xbe440ef6	-0.19146332
23	0x3f0a53e0	0.54034233
24	0x3e823c75	0.2543675
25	0xbee49319	-0.44643477
26	0xbd05d52b	-0.032673996
27	0xbe51e111	-0.20496012
28	0x3df0234b	0.117254816
29	0x3e0af1b6	0.13568768
30	0xbe4748a7	-0.19461308
31	0x3f30fd7b	0.6913678

l5.weight f4 [32, 32]
0	0xbf7fb506	-0.99885595
1	0x3eb537eb	0.35394225
2	0xbe0b42ea	-0.13599744
3	0x3ea1b920	0.31586552
4	0xbeb684bf	-0.35648152
5	0xbe938f08	-0.28820062
6	0x3d6cd10e	0.057816558
7	0xbe232a85	-0.15934189
8	0x3cabb412	0.020959888
9	0xbf080248	-0.5312848
10	0x3d82abf2	0.06380452
11	0x3b1c5fae	0.002386074
12	0xbdf8fc11	-0.12157453
13	0xbea7fb0d	-0.32808724
14	0xbc214793	-0.009843725
15	0xbe1eba4d	-0.15500756
16	0xbd59dbee	-0.053188257
17	0x3e8a8800	0.27056885
18	0x3de6c6c8	0.11268383
19	0x3f0add96	0.54244363
20	0xbd3d6238	-0.046236247
21	0xbd6e0d26	-0.058118008
22	0x3e627593	0.22115164
23	0xbe404fa0	-0.18780375
24	0x3d4e1ff5	0.050323445
25	0xbd61ec02	-0.055156715
26	0xbcebf3b3	-0.028802728
27	0xbeaef08a	-0.34167892
28	0xbe5dd759	-0.2166418
29	0xbb15afa8	-0.0022840295
30	0xbe89a26a	-0.26881725
31	0xbd81093b	-0.06300589
32	0xc0399875	-2.8999302
33	0x3f5a3ba9	0.85247284
34	0xbe6ddf8f	-0.23229812
35	0x3f263e48	0.64938784
36	0xbe923cff	-0.2856216
37	0x3f0371a7	0.51345295
38	0x3ecee62b	0.4040998
39	0xc0358b9d	-2.8366463
40	0xbdbd21d1	-0.092349656
41	0xbf5b674b	-0.8570449
42	0x3ecfee93	0.40611705
43	0x3e0a2abc	0.13492864
44	0x3f5558b6	0.8333849
45	0xbeccb553	-0.3998209
46	0x3f773040	0.96558
47	0xbba56720	-0.005047694
48	0xbe09ab3f	-0.13444231
49	0x3cc271e9	0.023735957
50	0xbe85aece	-0.26109928
51	0x3f019673	0.5062019
52	0xbd9ceae4	-0.07661989
53	0x3ecde18e	0.40211147
54	0x3de111e4	0.109897405
55	0xbe51d7f7	-0.2049254
56	0x3f21b0cf	0.63160414
57	0x3da7e4a6	0.08197908
58	0xbf66bdf6	-0.9013361
59	0x3f837d94	1.0272698
60	0xbeedb1db	-0.46424755
61	0x3e15c4a8	0.146258
62	0x3eca70b6	0.39539117
63	0x3dba9fbf	0.091125004
64	0xbdc19ad7	-0.094533615
65	0x3dd2052e	0.10254894
66	0xbdc4f785	-0.09617523
67	0xbd2eaced	-0.042645384
68	0x3db6a166	0.08917503
69	0x3c91f470	0.017816752
70	0xbe241be1	-0.1602626
71	0xbe340045	-0.17578228
72	0xbdc79175	-0.097445406
73	0x3e1b244a	0.15150562
74	0xbe0c71da	-0.13715306
75	0x3db005d6	0.08594863
76	0x3deb990a	0.11503799
77	0xbdad94a8	-0.084756196
78	0xbdb780e2	-0.08960129
79	0xbe023b5c	-0.12717956
80	0x3ce1e2b8	0.027573928
81	0xbcca7278	-0.024712786
82	0xbb3e1d9b	-0.0029009345
83	0x3d9d09c2	0.07667877
84	0x3d97ff8e	0.0742179
85	0xbd89c0d8	-0.06726235
86	0x3c46ec00	0.012141228
87	0x3cf9c6e0	0.030490339
88	0xbbfcf5bc	-0.0077197235
89	0x3d10e530	0.03537482
90	0xbdaa2d4f	-0.08309423
91	0x3e089315	0.13337357
92	0xbcf2c140	-0.029633164
93	0xbd0babe7	-0.034099486
94	0xbe227797	-0.15865932
95	0xbe0ba1d2	-0.13635948
96	0xbb10644c	-0.0022032438
97	0xbd2e0373	-0.04248376
98	0xbdd4441d	-0.10364554
99	0x3d9e8081	0.07739354
100	0xbcb1fac3	-0.021726018
101	0x3d414e0b	0.04719357
102	0x3e091551	0.13387038
103	0xbdc4bd44	-0.09606412
104	0xbdd0e8fa	-0.10200687
105	0xbd4d8cde	-0.05018317
106	0xbc754330	-0.014969632
107	0xbdce5338	-0.100744665
108	0xbd2dd6e8	-0.04244128
109	0xbba6f760	-0.0050954074
110	0x3da2657e	0.07929514
111	0x3e2778ed	0.16354723
112	0x3dec5ad8	0.115407646
113	0x3b715bda	0.003682843
114	0xbcd5ef73	-0.026115155
115	0x3cf83c5c	0.03030222
116	0xbbec76e0	-0.0072163194
117	0xbd1f6621	-0.038915757
118	0x3d3afa24	0.04564871
119	0xbe226d03	-0.15861897
120	0xbe293e2a	-0.1652762
121	0x3a3bb600	0.0007160604
122	0xbd8c5001	-0.06851197
123	0xbdb31273	-0.08743753
124	0xbe2b9c05	-0.16758735
125	0x3dd3ff3a	0.10351415
126	0xbcb11a5c	-0.021619014
127	0xbdd3f068	-0.10348588
128	0xbe3bf743	-0.18356042
129	0x3ed46422	0.41482645
130	0x3e396658	0.18105447
131	0x3ec65455	0.38736215
132	0x3ec2f402	0.38076788
133	0xbf45a89f	-0.7721042
134	0x3ec9e35e	0.3943128
135	0x3c332547	0.010934181
136	0x3e919162	0.2843123
137	0x3e522fbf	0.20526026
138	0xbfed409f	-1.8535346
139	0x3eb50e98	0.35362697
140	0xbf2c4d6b	-0.6730563
141	0x3e267fb7	0.16259657
142	0xbf9556e0	-1.1667137
143	0xbda7381f	-0.08165001
144	0x3d2f9f79	0.042876694
145	0xbd8f9bf2	-0.07012166
146	0x3e0b5b5d	0.13609071
147	0xbf02cbe1	-0.51092345
148	0xbdd6eb6a	-0.104941204
149	0x3e6ae765	0.22939833
150	0x3e0bf515	0.1366771
151	0x3e44b2e2	0.19208863
152	0x3eaf00f5	0.34180418
153	0xbe186b94	-0.14884788
154	0x3dcb30ef	0.09921443
155	0xbf901c03	-1.1258548
156	0x3e5677b8	0.20944107
157	0x3e259f7c	0.1617412
158	0x3e3c2592	0.18373707
159	0x3e6db9cb	0.23215406
160	0x3db19544	0.08671048
161	0x3ed78cbe	0.42099565
162	0x3ee78082	0.4521523
163	0x3f189b97	0.5961241
164	0x3ea778c4	0.32709324
165	0xbf050547	-0.5196118
166	0x3f07c299	0.5303131
167	0x3de42726	0.111402795
168	0x3ea73b9f	0.32662675
169	0x3e8f9f6d	0.2805132
170	0xbfd58944	-1.6682515
171	0x3edbf3bb	0.4295939
172	0xbf053ed5	-0.52049
173	0x3eb69af0	0.35665083
174	0xbf946e1a	-1.15961
175	0xbde7c908	-0.113176405
176	0x3e54b9fd	0.20774074
177	0x3e64881b	0.22317545
178	0x3ee044b0	0.43802404
179	0xbe90e4b0	-0.28299475
180	0x3dc03ec2	0.0938697
181	0x3efb4764	0.49077904
182	0x3eb88b53	0.36043796
183	0x3e559c3c	0.2086038
184	0x3eed0fce	0.4630112
185	0xbdfc6e74	-0.12325755
186	0x3e613e51	0.21996428
187	0xbf8c1cc0	-1.0946274
188	0x3e7b28e4	0.24527317
189	0x3e7c3ac1	0.24631788
190	0x3ee39eb9	0.44457033
191	0x3de2c2ba	0.110722974
192	0xbfe13505	-1.7594305
193	0x3f395dc1	0.7240868
194	0xbe34aa7d	-0.17643161
195	0x3f1c6c54	0.61102796
196	0xbf05f465	-0.5232604
197	0x3b7d0cc5	0.0038612348
198	0x3e9fcae0	0.3120947
199	0xc00ad963	-2.1695182
200	0x3d811b5d	0.06304047
201	0xbf1c4c8e	-0.61054313
202	0xbdc4a562	-0.09601857
203	0x3d84422c	0.06457934
204	0x3f0a4868	0.54016733
205	0xbdc78a66	-0.09743194
206	0x3f6c5520	0.9231739
207	0x3c5541c0	0.013016164
208	0x3e68c9cb	0.22733228
209	0x3dcaa6dd	0.09895108
210	0x3d4a3c87	0.04937413
211	0x3eba4fdc	0.36389053
212	0xbd97010d	-0.07373247
213	0x3da3c682	0.07996847
214	0x3ba20800	0.0049448013
215	0xbde2ce06	-0.11074452
216	0x3f1f562a	0.6224085
217	0x3c95f328	0.018304422
218	0xbf11ae8c	-0.5690696
219	0x3f83ee0a	1.0307019
220	0xbe4d00fc	-0.20019907
221	0x3dbb55fe	0.09147261
222	0x3f1ea371	0.6196814
223	0xbe289940	-0.1646471
224	0xbf911467	-1.1334351
225	0x3f4e38cd	0.8055542
226	0x3db3df24	0.08782795
227	0x3f2e9d1a	0.6820847
228	0xbed7a541	-0.42118266
229	0x3edf5070	0.43616056
230	0x3f19a9e4	0.6002486
231	0xbfb1289c	-1.3840518
232	0x3ea08e69	0.3135865
233	0xbdd4f08f	-0.103974454
234	0xbe0feb87	-0.1405469
235	0x3e77fc00	0.24217224
236	0x3e3ef500	0.18648148
237	0xbe8a1ec2	-0.2697659
238	0x3f326be3	0.6969587
239	0xbdbf77d0	-0.09349024
240	0x3c6e8878	0.014558904
241	0x3e5cc63f	0.2156
242	0x3e8adbbc	0.2712077
243	0x3f2535c9	0.64535195
244	0x3e07de9b	0.13268511
245	0x3eda6cad	0.42661038
246	0x3ebd5de3	0.36985692
247	0x3d3beb94	0.04587896
248	0x3f3d29e3	0.7389204
249	0x3dcc4d1e	0.099756464
250	0xbe83d154	-0.25745642
251	0x3f308aed	0.68961984
252	0xbe1d5b36	-0.15366825
253	0x3e377638	0.1791619
254	0x3e1e373c	0.15450758
255	0x3daaedd8	0.08346146

l5.bias f4 [32]
0	0x3e2bee19	0.16790046
1	0xbdf3a4bb	-0.11896654
2	0x3da68540	0.08130884
3	0xbe0371d5	-0.12836392
4	0x3ea7089a	0.3262375
5	0x3eb74c1f	0.35800263
6	0xbc8241c9	-0.01590051
7	0x3eb08abd	0.3448085
8	0x3d1f09e1	0.03882778
9	0x3e6189ee	0.22025272
10	0x3eb0e13c	0.3454684
11	0x3ea45df8	0.32102942
12	0x3eb81c6e	0.3595919
13	0x3e32c310	0.17457223
14	0xbe314678	-0.17312038
15	0x3eca7928	0.3954556
16	0x3d7ff7aa	0.06249205
17	0x3d8709e6	0.06593685
18	0x3edb6a28	0.42854428
19	0xbcbec59f	-0.023287592
20	0x3ce7ad6f	0.028280942
21	0x3c8ecf3b	0.0174328
22	0x3dbc5a35	0.09196893
23	0xbe1025cc	-0.14076918
24	0xbdce480a	-0.10072334
25	0xbd2c79ac	-0.042108223
26	0xbe1aa07a	-0.1510028
27	0x3e2a2e7f	0.166193
28	0x3dd3283d	0.10310409
29	0x3e9db697	0.30803367
30	0xbdf822c7	-0.12116008
31	0x3e8e0df0	0.27745008

l6.weight f4 [1, 32]
0	0xbfb6d8d6	-1.4284923
1	0xc036eb75	-2.8581212
2	0xbe0b8b20	-0.1362729
3	0x3da6e20e	0.08148585
4	0x3f3d1043	0.7385294
5	0x3f3b211a	0.73097384
6	0xbfed9ab3	-1.8562835
7	0xbfbf397b	-1.4939417
8	0x3feb3bcd	1.8377625
9	0xbfc2550b	-1.5182203
10	0x3f35cefc	0.7101896
11	0x3f59219d	0.84816915
12	0x3f5f819f	0.8730716
13	0xbf93a476	-1.1534564
14	0x3f399939	0.72499424
15	0x3f4bb70b	0.79576176
16	0xbd850507	-0.064950995
17	0x3c9ee820	0.019397795
18	0x3f3cdbda	0.73772967
19	0x3fabaaf1	1.3411542
20	0xc0491b22	-3.142281
21	0x3f0b5c47	0.5443768
22	0xc0385707	-2.8803117
23	0x3d9382c6	0.072026774
24	0xbe6b676d	-0.22988673
25	0xbe0b4d5e	-0.13603732
26	0xbdf52f6a	-0.11971934
27	0x3f566c16	0.83758676
28	0xbd988f63	-0.07449224
29	0x3f3dcb83	0.7413866
30	0x3fa2259f	1.2667731
31	0x3f323a97	0.6962065
