model/CartPole_actor90.pth (torch, 7650 bytes, 5 tensors)

l1.weight f4 [32, 4]
0	0xbe8da99f	-0.27668473
1	0x3e86c2ff	0.26320645
2	0xbf76e8a2	-0.9644872
3	0xbe834591	-0.25639012
4	0xbefe001a	-0.49609452
5	0xbe2c9f3d	-0.1685762
6	0x3fa31367	1.2740296
7	0x3f0057c8	0.50133944
8	0xbe2a9fe0	-0.1666255
9	0x3d6b13fb	0.0573921
10	0xbf71aa22	-0.9440023
11	0xbe724fa0	-0.23663187
12	0xbf14c6fc	-0.58116126
13	0xbf0bbdcf	-0.545865
14	0xbef0cc23	-0.47030744
15	0xbe23cacd	-0.15995331
16	0x3ee92763	0.45537862
17	0x3f417b12	0.75578415
18	0x3dc222dd	0.09479306
19	0x3c6e0069	0.014526465
20	0xbe01748a	-0.12642112
21	0x3f157d94	0.5839474
22	0x3e8825ae	0.26591247
23	0x3f272814	0.6529553
24	0x3e90d2dc	0.28285873
25	0x3edb99d3	0.42890796
26	0x3de82bb1	0.113364585
27	0xbde4552c	-0.11149058
28	0xbefef779	-0.49798182
29	0xbdb79c42	-0.08965351
30	0x3e6f4579	0.23366345
31	0x3ebea9ce	0.37238926
32	0xbd1fd28c	-0.039019153
33	0xbe30e806	-0.1727601
34	0xbeffe3f2	-0.49978596
35	0xbed1b99b	-0.40961918
36	0xbe898d85	-0.26865783
37	0x3ea6f25d	0.32606784
38	0x3f2107fc	0.6290281
39	0x3e948b48	0.29012513
40	0xbea74ef9	-0.3267744
41	0xbe6cdad8	-0.23130357
42	0x3bee2ba7	0.0072683874
43	0xbebd3f5b	-0.369624
44	0x3e165948	0.14682496
45	0xbdca254d	-0.09870396
46	0x3ed36ef2	0.41295582
47	0x3e89f2b0	0.26942968
48	0xbe62bd71	-0.22142579
49	0xbe07dc0f	-0.1326754
50	0xbd172169	-0.036897097
51	0x3e7c986c	0.2466752
52	0x3ec45bb6	0.3835122
53	0x3e0ce875	0.1376055
54	0x3f1c188f	0.60974973
55	0xbe428d7d	-0.18999286
56	0x3f24ff8e	0.64452446
57	0x3d999a4c	0.07500133
58	0xbeb495bf	-0.35270497
59	0xbdd54191	-0.104128964
60	0x3c2ae96c	0.010431629
61	0xbdbb8003	-0.09155276
62	0xbcb04ef8	-0.02152203
63	0x3ee2d3fa	0.4430235
64	0x3e9ccc99	0.30624846
65	0xbe110fd8	-0.141662
66	0x3f0b576d	0.54430276
67	0x3da93bbf	0.08263349
68	0x3f01bca8	0.5067849
69	0x3eee4b56	0.46541852
70	0x3ebf02c1	0.3730679
71	0xbe159364	-0.14607006
72	0x3da2a240	0.07941103
73	0x3edf3962	0.43598467
74	0x3fcb470d	1.5881058
75	0x3ead330b	0.33828005
76	0xbe010870	-0.12600875
77	0xbed62732	-0.4182678
78	0xbe80d7d1	-0.25164655
79	0xbe3e7a37	-0.18601309
80	0xbf34639b	-0.70464486
81	0x3db1d601	0.08683396
82	0x3f925803	1.1433109
83	0xbe8d178b	-0.27557024
84	0x3c204acc	0.009783458
85	0xbe897c3a	-0.2685259
86	0xbea7ad34	-0.3274933
87	0xbe624906	-0.22098169
88	0xbe8dee97	-0.27721092
89	0xbe8007ce	-0.25005955
90	0x3f49698b	0.7867667
91	0xbf1e38bd	-0.61805326
92	0x3f057ab1	0.5214034
93	0x3ea74743	0.32671556
94	0xbeea17b0	-0.45721197
95	0xbe161c41	-0.14659216
96	0xbe3992b3	-0.18122368
97	0x3d94a298	0.07257575
98	0xbf8c036b	-1.0938543
99	0xbebc4572	-0.36771733
100	0x3dc239cf	0.09483682
101	0x3e10e79e	0.14150855
102	0x3e696f05	0.22796257
103	0xbe1b85c4	-0.15187746
104	0xbe788f7d	-0.24273486
105	0x3ddab28c	0.10678586
106	0xbf9e903a	-1.2387764
107	0x3d5fd8a5	0.054649968
108	0x3db99a50	0.09062636
109	0x3da55160	0.08072162
110	0xbefc2171	-0.49244264
111	0x3dc21e23	0.094784044
112	0xbf0eb6b7	-0.5574755
113	0x3eb743fd	0.35794058
114	0x3f18ce37	0.5968966
115	0x3e6e0573	0.23244266
116	0xbeb6e230	-0.35719442
117	0xbe64c2ae	-0.2233989
118	0xbdae23dd	-0.08502934
119	0x3bdd1f95	0.0067481496
120	0x3e545f02	0.20739368
121	0x3eb48f54	0.352656
122	0xbf9dd249	-1.2329799
123	0x3df2a88a	0.118485525
124	0xbf273753	-0.65318793
125	0xbf0dedd5	-0.5544103
126	0xbeac66f1	-0.33672288
127	0xbbdda741	-0.006764323

l1.bias f4 [32]
0	0xbdc759a9	-0.09733898
1	0xbe65168c	-0.22371882
2	0xbe22add3	-0.15886621
3	0x3ea963eb	0.33084044
4	0xbeb2753b	-0.34855065
5	0x3e2eaa2e	0.17057106
6	0x3f738593	0.95125693
7	0xbd7260f5	-0.059174497
8	0xbec98b2c	-0.39363992
9	0xbe9ae54b	-0.30253062
10	0xbd8d8318	-0.0690977
11	0x3f338c95	0.70136386
12	0x3f443ea9	0.7665811
13	0x3e9bb9b9	0.30415133
14	0x3f1d2314	0.6138165
15	0xbeb86ae3	-0.36019048
16	0xbf2c9586	-0.67415655
17	0x3dcfb958	0.101427734
18	0x3dd43fd4	0.10363737
19	0x3e6a8dc3	0.2290564
20	0xbec18914	-0.37799895
21	0xbf0657e6	-0.5247787
22	0xbf044f90	-0.516839
23	0xbef72633	-0.4827133
24	0x3e516eb6	0.20452389
25	0x3f6056e7	0.876326
26	0x3eb47133	0.35242614
27	0xbf169edb	-0.58836144
28	0x3eeac88f	0.4585614
29	0xbef6c806	-0.4819948
30	0xbe4de782	-0.20107844
31	0x3e6f6908	0.2337991

l2.weight f4 [32, 32]
0	0xbe21c9b6	-0.15799603
1	0x3e1cb3fb	0.15303032
2	0xbf063bae	-0.52434814
3	0xbe08e993	-0.13370351
4	0xbda06c68	-0.07833177
5	0x3da5178e	0.08061133
6	0xbd4cd222	-0.050005086
7	0x3e0045ca	0.12526622
8	0xbe9dbc16	-0.3080756
9	0xbd9edf45	-0.07757429
10	0x3e8c180a	0.2736209
11	0x3e03c582	0.12868312
12	0x3dd7e36f	0.105414264
13	0x3c84f7e1	0.01623148
14	0xbe782a6c	-0.24234933
15	0x3dc7d558	0.09757489
16	0xbc339b9e	-0.010962395
17	0xbdc3430d	-0.09534273
18	0x3ed58a3d	0.4170703
19	0xbdf791c1	-0.12088347
20	0x3e744466	0.23854217
21	0xbe59a4ce	-0.21254274
22	0x3e06d130	0.13165736
23	0xbd3eadd3	-0.04655249
24	0x3daec219	0.08533115
25	0x3e538c9c	0.20659107
26	0xbe4cb1fe	-0.19989774
27	0xbe3659d9	-0.17807712
28	0x3dbd69a6	0.092486665
29	0x3d909d9c	0.070613116
30	0x3de3b2c3	0.111180805
31	0x3e0dbb8d	0.13841076
32	0xbe52d827	-0.20590268
33	0x3e926c33	0.28598174
34	0xbf1ac9a7	-0.6046395
35	0xbd5b225e	-0.053499572
36	0xbdcedd54	-0.10100809
37	0x3e464430	0.19361949
38	0xbd4181a8	-0.04724279
39	0x3e355089	0.17706503
40	0xbe2a7ae4	-0.16648442
41	0xbcdb7fd7	-0.026794357
42	0xbcfee2d5	-0.031114021
43	0x3e59b5b2	0.21260718
44	0xbe0b64c6	-0.13612661
45	0xbb05ecc2	-0.0020435308
46	0xbe2f29a8	-0.17105734
47	0xbd15dd19	-0.03658781
48	0x3dbcff7d	0.09228418
49	0x3c11615f	0.008873313
50	0x3eb0a75e	0.3450269
51	0x3d34b417	0.04411706
52	0x3e546f9b	0.20745699
53	0xbe7da930	-0.24771571
54	0x3d1863fa	0.03720472
55	0xbe41c449	-0.18922533
56	0xbdf7c648	-0.12098366
57	0x3e5d36d9	0.21602954
58	0xbd881860	-0.06645274
59	0xbe8f95c9	-0.28043965
60	0x3e54e8ee	0.2079198
61	0x3e77a833	0.24185257
62	0xbc1ec595	-0.009690662
63	0x3c84b31d	0.01619869
64	0xbc72122a	-0.014774838
65	0xbbfdef05	-0.0077494406
66	0x3e4eb6cf	0.20186923
67	0xbe0ffc27	-0.14061032
68	0x3acfc7b6	0.0015852365
69	0xbde88aae	-0.11354576
70	0x3db1cbd8	0.08681458
71	0x3ca95bcc	0.020673655
72	0x3dbf27ea	0.09333785
73	0x3e91e59f	0.284955
74	0x3dcd3681	0.100201614
75	0xbe99b288	-0.3001902
76	0x3e57e7a6	0.2108446
77	0x3daa93eb	0.08328994
78	0x3e04ce84	0.12969404
79	0x3ddca16e	0.10772978
80	0xbd310be6	-0.043224238
81	0x3e50ee48	0.20403397
82	0xbe258b47	-0.16166411
83	0xbde188ff	-0.11012458
84	0x3a584284	0.00082496577
85	0xbdad372d	-0.084577896
86	0x3daca83e	0.08430527
87	0xbd65680c	-0.05600743
88	0x3c70b73c	0.014692124
89	0xbd665088	-0.056229144
90	0xbc8861cb	-0.016648194
91	0xbd789848	-0.0606921
92	0x3c853080	0.016258478
93	0xbe8fab2b	-0.28060278
94	0xbe93ec08	-0.28891015
95	0xbe151bb9	-0.14561357
96	0xbebd3dbd	-0.36961165
97	0xbea6808f	-0.32519957
98	0xbe8ce797	-0.2752044
99	0x3ea30578	0.3184011
100	0xbf25dff0	-0.64794827
101	0xbe4f8488	-0.202654
102	0x3ea381dd	0.31935015
103	0x3ecd821a	0.40138322
104	0x3e0fc277	0.14039026
105	0xbed5e580	-0.41776657
106	0x3e0dfff4	0.1386717
107	0x3eb997f1	0.36248735
108	0x3ee88b58	0.4541881
109	0xbdb3aae2	-0.08772828
110	0xbd9187f4	-0.07106009
111	0xbeb66275	-0.35621992
112	0xbef2fd51	-0.4745889
113	0xbe9ee8dc	-0.31037033
114	0xbe658520	-0.22414064
115	0x3e845434	0.25845492
116	0x3b8cc4ca	0.00429592
117	0xbe8cd17b	-0.2750357
118	0xbd97e985	-0.07417587
119	0xbed80447	-0.42190763
120	0x3d2aa7f6	0.041664086
121	0xbe15a168	-0.14612353
122	0x3e4d0aa3	0.20023589
123	0x3da4c4e1	0.08045364
124	0x3eaf8618	0.34281993
125	0x3e777f7a	0.24169722
126	0xbe8633eb	-0.26211485
127	0x3f15ec4e	0.585637
128	0xbe0fbf65	-0.14037855
129	0xbc5438b6	-0.012952974
130	0xbee0fe70	-0.4394412
131	0x3e0ef82e	0.1396186
132	0xbbc9048b	-0.006134575
133	0x3c814d2d	0.01578387
134	0xbd92bfc1	-0.071654804
135	0xbd2f9cc7	-0.042874124
136	0x3d438532	0.047734447
137	0xbe90a0bf	-0.2824764
138	0x3ddfb2a7	0.10922747
139	0x3dd6d120	0.10489106
140	0xbe7d6137	-0.24744116
141	0xbdd9324e	-0.10605298
142	0xbe4c3f74	-0.1994608
143	0xbc761791	-0.015020267
144	0x3dd68c9d	0.104760386
145	0xbe4744a4	-0.19459778
146	0x3e4c4404	0.19947821
147	0x3e464db0	0.19365573
148	0x3e17bfbf	0.14819239
149	0xbe02cfce	-0.12774584
150	0xbe07bb81	-0.13255121
151	0xbd91b638	-0.071148336
152	0x3d951186	0.07278733
153	0xbd347099	-0.044052694
154	0xbcc5c294	-0.024140634
155	0x3e39842f	0.1811683
156	0x3ca59bb3	0.020215845
157	0x3e19c346	0.15015897
158	0x3e498f86	0.19683656
159	0x3da375f2	0.07981481
160	0xbe863977	-0.26215717
161	0xbe6b2fe9	-0.22967495
162	0xbf09a29e	-0.5376376
163	0x3e4035c8	0.18770516
164	0x3cdb3031	0.026756378
165	0x3e7d5ab7	0.24741636
166	0xbe31b393	-0.17353658
167	0x3db99fa2	0.09063651
168	0x3dd756f0	0.10514629
169	0xbf0bf8a8	-0.54676294
170	0xbda50ceb	-0.080591045
171	0xbe10a0a9	-0.14123787
172	0xbe70f806	-0.23532113
173	0xbd77c6a2	-0.060492165
174	0xbdc0bf3d	-0.09411476
175	0x3e2dfdd7	0.16991363
176	0x3eff9ad2	0.49922806
177	0x3d88c1e1	0.066776045
178	0x3e52551a	0.20540276
179	0x3e9ac485	0.30228058
180	0xbe7c609a	-0.24646226
181	0x3d837eff	0.06420707
182	0x3e890063	0.26758108
183	0x3c0bcb70	0.00853239
184	0xbe679e26	-0.22618923
185	0x3d9cd1ba	0.0765719
186	0x38e162d0	0.00010747241
187	0x3f21f598	0.6326537
188	0xbe67e13e	-0.22644517
189	0x3e893760	0.2680006
190	0x3ed4f67b	0.415943
191	0x3e9ebaa5	0.31001773
192	0x3e7ef6c6	0.24898824
193	0xbe1e9cec	-0.15489548
194	0x3ef3053a	0.47464925
195	0x3d82f75b	0.063948356
196	0xbc22f618	-0.009946369
197	0xbd31f714	-0.043448523
198	0xbe800a6a	-0.25007945
199	0xbe1f905d	-0.15582414
200	0x3dc10750	0.09425223
201	0xbcf24742	-0.029574994
202	0xbe51010e	-0.20410559
203	0xbe96ded5	-0.29466882
204	0x3e0b1c71	0.13585068
205	0x3e64c81c	0.2234196
206	0x3eac526e	0.3365664
207	0xbdc08d97	-0.09402006
208	0xbe2eba0d	-0.1706316
209	0xbba6e76e	-0.0050935065
210	0xbed47289	-0.41493633
211	0x3d4b5198	0.04963836
212	0xbef0ea36	-0.4705369
213	0x3e3f4bf9	0.18681325
214	0xbdcb0f63	-0.09915044
215	0x3dc796d7	0.09745567
216	0x3e027edd	0.12743707
217	0xbdea1b06	-0.114309356
218	0x3e80cb6d	0.25155202
219	0x3e8e119b	0.27747807
220	0xbe25eb45	-0.1620303
221	0xbda10170	-0.07861602
222	0x3e2731b2	0.16327551
223	0x3de8b841	0.11363269
224	0xbe2cf80a	-0.16891494
225	0x3f2df9df	0.679594
226	0xbf35d9cc	-0.71035457
227	0x3e0f91b3	0.14020424
228	0xbe072b82	-0.1320019
229	0x3eddede4	0.4334556
230	0x3df07417	0.117408924
231	0x3ec68cab	0.38779196
232	0xbe7deef3	-0.24798183
233	0xbe929485	-0.28628936
234	0xbd18673c	-0.037207827
235	0x3f0b14cf	0.54328626
236	0xbe1102c8	-0.14161217
237	0xbdcaaa00	-0.09895706
238	0xbf25664d	-0.64609224
239	0xbdd3066e	-0.10303961
240	0x3ee9fd34	0.4570099
241	0xbe237f94	-0.15966636
242	0x3f10eaba	0.56608164
243	0xbdbfff75	-0.093748964
244	0x3f04551a	0.51692355
245	0xbecd6536	-0.4011628
246	0x3e92a0c0	0.28638268
247	0xbe00afb1	-0.12567021
248	0xbeacf8ae	-0.33783478
249	0x3ece92f3	0.40346488
250	0xbef841af	-0.48487613
251	0xbcbef3be	-0.023309585
252	0x3ef1e67e	0.47246164
253	0x3e3daf56	0.18523917
254	0xbed76af3	-0.42073783
255	0xbcc539b3	-0.024075365

l2.bias f4 [32]
0	0x3dad7589	0.08469684
1	0x3dc07407	0.093971305
2	0xbd3d36f2	-0.046194978
3	0x3eb504bd	0.35355178
4	0x3e3dab4a	0.18522373
5	0xbec323a2	-0.38113123
6	0xbe5e84b9	-0.21730317
7	0x3e92f9f4	0.28706324
8	0x3dac05cf	0.083995454
9	0x3e8450dc	0.2584294
10	0x3cf7274e	0.03017011
11	0xbe968d9d	-0.29404917
12	0x3e8cb531	0.27481988
13	0xbe5d3813	-0.21603422
14	0x3df363c8	0.11884266
15	0x3e0cdb52	0.13755539
16	0xbc4a0ad7	-0.012331686
17	0xbe2bcd5c	-0.16777557
18	0x3da8c25c	0.08240196
19	0xbe64818c	-0.22315043
20	0xbe0de659	-0.13857402
21	0xbe7b7ec4	-0.24560076
22	0xbd63d603	-0.05562402
23	0x3eacab88	0.33724618
24	0x3e2f9920	0.17148256
25	0xbe969eb2	-0.2941795
26	0xbe321611	-0.1739123
27	0xbd730c33	-0.059337806
28	0x3e10039a	0.14063874
29	0xbde40690	-0.11134064
30	0xbd08e322	-0.033419736
31	0xbee4ac27	-0.44662592

l3.weight f4 [1, 32]
0	0x3e956a66	0.29182738
1	0x3ec50993	0.38483867
2	0xbe876b3e	-0.26449007
3	0x3ee81533	0.45328674
4	0x3efd98e6	0.49530715
5	0x3eb4f91d	0.35346308
6	0xbe32a932	-0.17447355
7	0x3f442d8c	0.76632
8	0xbe55f0cc	-0.20892638
9	0x3ebbf781	0.36712268
10	0x3de7a1ec	0.11310181
11	0x3ee5cb8c	0.44881856
12	0x3ed07e9f	0.40721604
13	0xbf05a02d	-0.52197534
14	0x3e8cafbf	0.27477834
15	0x3f399687	0.7249531
16	0xbe9f1ad7	-0.31075165
17	0xbeac9184	-0.3370477
18	0x3e7e3625	0.24825342
19	0xbec53c51	-0.3852258
20	0x3e752210	0.23938775
21	0x3f1458c7	0.57947963
22	0x3e87a067	0.26489565
23	0xbf014061	-0.5048886
24	0xbf2631e3	-0.6491987
25	0x3ecc4d7b	0.39902863
26	0xbe4b4cec	-0.19853562
27	0xbeca13da	-0.3946827
28	0xbf0b1d91	-0.5434199
29	0xbeda360c	-0.4261936
30	0xbed5f252	-0.41786438
31	0xbec63649	-0.3871329
