model/CartPole_actor30.pth (torch, 7650 bytes, 5 tensors)

l1.weight f4 [32, 4]
00000000: 3f6f 7b3d 50a5 b23d 47c6 10bf 81f6 39be
00000010: 6661 01be 2d75 293e 1591 04be 3425 873e
00000020: dddc 13bd 5206 fa3c 47bf d4bc 0183 883c
00000030: ba97 00bf c7c7 ebbe c91a 61be 3153 f2bd
00000040: 06d0 143e 4520 a83e 8290 a3be 4f98 82be
00000050: af8a 783d cf5c 0b3f 01a7 b1bc 9a43 953e
00000060: cbb3 58bd 2a62 1d3e 7e4d e63e ae2b f7be
00000070: 782a d7be 848a 5dbd 1773 78be b352 843e
00000080: 5868 b2be f09d ea3d 0ffe 82be dffe 23bf
00000090: 3a11 c0be 5fae a63e 134d b53e 0157 4e3e
000000a0: bb3a a7ba 4dd5 5bbe 8048 77bc 62a0 cabe
000000b0: 964b 28bd 27d5 00be 0df6 b13e a8e3 c33e
000000c0: d322 98be 0f44 543d 42ca e13e a715 b33e
000000d0: b247 27bd 5613 a9bd 14a1 043f 70f0 6ebd
000000e0: 85c2 033e 2e36 0fbf 3ef6 abbe 4bc6 3fbe
000000f0: 135c eb3d 7dd5 ad3d f1ab 8ebe e998 953e
00000100: c633 123d 67ca a6bd bb07 133d d8be cd3c
00000110: ba19 773d ebc3 0f3f adc6 b7be 2c6b 2fbe
00000120: 28a2 053e 3fe4 a13e b017 e53e 1c85 f63e
00000130: 5466 1a3e 8abd bfbe ff9c 1d3d 546b a8be
00000140: b706 f4be 080e d83e ba0a 0c3f 42be 84be
00000150: 649f 133d 8a13 883d d40e 99bd b4b4 04bf
00000160: 3cd9 173e 182d 53be c959 563d 89c9 f4bb
00000170: 90df d23e 196f ad3e 5431 fabe bd4b a2be
00000180: 066b 273d f4f7 ab3d a66f a7be 82f0 13bf
00000190: d729 eb3e 61d3 bb3e 8b72 1bbe 397d 6d3c
000001a0: d7ff aebe 9144 063e ee8e d1be 39c3 b3be
000001b0: 44d9 99bd 6122 96bd 9cda d5bd 652c 9c3e
000001c0: 9075 3fbe 9e2e c53e 0b8b 143f b36c 61be
000001d0: 622b e2bd 55f4 8e3d 1fed 0c3c f65f 233d
000001e0: b006 e23d 16e0 1b3e c2f2 aabe 9f8c ac3d
000001f0: 1a80 cdbe c3b3 b5be 6997 60bd d61e 73bd
0.06138539 0.08722937 -0.5655255 -0.1816044 -0.12634811 0.16548605 -0.1294597 0.2639557
-0.036099304 0.030520592 -0.025970114 0.01666403 -0.50231516 -0.46050856 -0.21982874 -0.11832274
0.1453248 0.3283712 -0.31946188 -0.25506827 0.060679134 0.5443849 -0.021686079 0.29153138
-0.05290584 0.15369478 0.44980997 -0.48275512 -0.4202459 -0.054087177 -0.24262653 0.25844344
-0.34845233 0.114559054 -0.25584456 -0.6406078 -0.37513143 0.3255491 0.35410365 0.20150377
-0.0012758592 -0.21468087 -0.015092969 -0.39575487 -0.04108771 -0.12581311 0.34758034 0.38259625
-0.2971407 0.05182272 0.44099623 0.34977457 -0.04083986 -0.08255641 0.51808286 -0.058334768
0.12867172 -0.55942047 -0.33586305 -0.18727987 0.11492171 0.08487985 -0.27865556 0.29218224
0.035693906 -0.08144074 0.035896044 0.025115415 0.06032727 0.5615832 -0.35893765 -0.17130727
0.13050139 0.3161945 0.44744635 0.4814843 0.15078098 -0.37449294 0.0384798 -0.32894385
-0.47661373 0.42198205 0.5470387 -0.25926405 0.03604068 0.06644352 -0.07473531 -0.5183823
0.14828962 -0.2062267 0.05233172 -0.007470314 0.4118619 0.33873823 -0.4886576 -0.3169841
0.04087355 0.08396903 -0.32702368 -0.5778886 0.4593036 0.36684707 -0.15180413 0.014495187
-0.34179565 0.13112094 -0.4092936 -0.3510988 -0.07512143 -0.07330776 -0.10442087 0.3050262
-0.1869719 0.3851213 0.5802466 -0.22014122 -0.11043431 0.069801964 0.008601456 0.039886437
0.11036432 0.15222201 -0.33388335 0.08425259 -0.40136796 -0.3548871 -0.054831896 -0.05935558

l1.bias f4 [32]
00000000: f71c 92be 0cac 0dbf e948 953d 5338 853d
00000010: de63 80be 4b2c 143d 0c01 953e 9d5d 1abe
00000020: f7df bebd 7b11 733d 430b 683e 5e95 ad3e
00000030: b8b6 163f 3ee8 f13e e4ee e93e 6e5a 3d3d
00000040: a6ae 15bf 3199 a4be c7bb b83e 420e b3bd
00000050: 644b fbbd 981d c9be a431 3ebf a9f7 acbe
00000060: 7712 72b9 c5d0 ac3e d0d7 b03e eac0 fcbe
00000070: 2f7f bf3e b32e eabe 09f0 52be 5d3a 1fbe
-0.28537723 -0.5534065 0.07289297 0.065048836 -0.25076193 0.036175054 0.2910236 -0.15074773
-0.09320062 0.059342843 0.22660546 0.3390302 0.58872557 0.472475 0.45690072 0.04622882
-0.5846962 -0.32148126 0.36080763 -0.08742954 -0.12270239 -0.3928039 -0.74294496 -0.337827
-0.00023085797 0.3375303 0.34539652 -0.49365932 0.3740172 -0.45738754 -0.20599379 -0.15549608

l2.weight f4 [32, 32]
00000000: 3287 edbc 4c52 073d 2b5d 6cbe 358d f0bd
00000010: 3d37 bfbc bdc2 383c 9476 5cbd eea9 d43d
00000020: aed8 27be 9e07 08bd 1406 263e ee6a c0bd
00000030: 9da7 353e c329 693d 88f5 fabd 2519 123e
00000040: 1fa2 1b3d 9d73 babd 9768 093e df20 5dbe
00000050: 007a 64bd 8c50 83bd c6a2 833d 6e7b aa3d
00000060: 1358 e03d dcd7 6f3d 10f2 bdbc ec12 c2bd
00000070: 9390 69be 4bb3 283e 8431 1d3e f86b b53d
00000080: beb8 f3bd d03f 593d 8b42 51be 1b7b 81bd
00000090: 934b aebd 4af8 853d 2c16 adbd 9105 fd3c
000000a0: d692 f83b e4de 9c3d 4404 02be df0d 23be
000000b0: e9e8 c2bd 8fc3 013e 2156 5bbc d40a 553e
000000c0: 5b1c 113e 3819 b33c e337 06bd f8ef 9ebd
000000d0: 1cff 8fbd ff41 28bd ae8e 26bd 58ad 883d
000000e0: b7b8 d0bd 0d1c 92bd 043a 2c3e 111d 35be
000000f0: 7964 e1bd 08c4 683e acae a83d d56f 0dbd
00000100: e0c7 e2bd 1110 993d b456 063d c732 47bd
00000110: 4d2b 2dbd 8c4c 84bd 0725 8ebd 49b7 3c3e
00000120: 397e 4a3d 6ba0 153e a994 f73d efdb ecbd
00000130: c389 c53c 2389 3dbe 8cc5 b7bd f345 353d
00000140: d899 3abd 78d8 273e 2138 78bd 69cd 293d
00000150: 1fa8 013e fb59 fbbd 537e d93d 6b41 18be
00000160: cf08 c6ba f055 943c 3532 9ebd c396 7f3d
00000170: 4857 403e 6525 9dbd 45a8 74bd d595 483c
00000180: 4080 51be c6ce 053d daf2 2abe 38c6 02be
00000190: cac3 d6bd b422 0d3e 3db6 f53d 0bc4 e83d
000001a0: 1392 273d 4c89 51bd 4546 34bd c835 82bb
000001b0: 1161 493e 7f83 be3d 9914 52bd f1b0 c5bd
000001c0: 8c65 a6bd 0be9 323d 445f e6bd ea66 51be
000001d0: 911c 623d 10c6 41be c867 a23d cf07 533d
000001e0: 3be6 ec3c e3b7 22be ae86 27be d8d9 093e
000001f0: a079 52ba e0c7 6c3d 38a6 b6bd abd7 46bb
00000200: adda 96bd 8fce 333c c0b0 74be c729 953d
00000210: 0f4a 243d 466f ce3c 8011 ab3c b251 f6bd
00000220: 0a0a d33d 474f ffbd e2a6 783d 3205 86bd
00000230: 3c94 21bd ed52 a03d bef2 94bd 93da 463d
00000240: ccdb fb3d 1c5e 22be 38cc 063d 31ab e33c
00000250: 5608 883c 3f74 76bd dc0f 18be a23d b6bc
00000260: d7d5 853d ae5b b3bd c56d 823d e11b 753d
00000270: 1e62 13be 7667 1a3d 8609 373d 0de1 3fbd
00000280: 4db7 0c3d 7710 ef3d fba8 bbbe 899a 7c3d
00000290: 8915 093e d7e1 1d3e 4cee e23d a24e 683d
000002a0: 96c6 bc3d eb37 fcbd 3c92 44be 1879 3abe
000002b0: c62e 2b3e 0c96 d33d 2b6d a8bd ef21 a63d
000002c0: 5190 b93e 7c41 363e e13a 033e e5b7 e73d
000002d0: 2d6e 32be 527b 90bd dd46 813e 6878 133e
000002e0: 236c a5bd 058d ea3d 6dbb dd3d 88d9 25bc
000002f0: 7f32 87be b396 723e b50e a8bd 8e41 f03d
00000300: 9c4e 5bbd 8821 8a3c 817e 023e e3bb 413d
00000310: 005d b0bd bd53 f13d 604d bebd 75bf 8f3c
00000320: 3cef fbbd f847 19be 1be5 30be f7f1 313e
00000330: 7898 c33d de57 3e3e 4278 aa3d 738f 67be
00000340: 507d 64be a640 40bd 4c23 babd c5c1 283e
00000350: 30bc 0fbd 082c b7bd 0454 19be b259 1ebe
00000360: c047 ba3d c2f8 103e 3b6f ee3d ab30 413e
00000370: 87af 8b3e 4a6a 0ebe 09dc 3e3d 813a 443e
00000380: 5981 3e3d 91d6 3c3e 1b75 fdba 5265 323e
00000390: 4e89 77bd 76bf e03d b875 923d 3d41 d6bc
000003a0: 82b9 f5bd 27dc fcbd b9bb 17be 2273 b13d
000003b0: 8222 063e 1bdc 863b 67db 34bd e415 223e
000003c0: 55d5 423e 86d0 5e3b 75a2 d9bd f38b a93d
000003d0: 8d6c 713c 9c9b 27be 3f71 4b3e c69b 113e
000003e0: e504 3abd 924f 873d 8457 cebd c08d 3fbd
000003f0: 83bc f33d 54bf a3bc 8fe0 f6bd 0e88 99bd
-0.02899513 0.03303747 -0.23082416 -0.11745683 -0.02334177 0.011276898 -0.053824022 0.10383974
-0.1639125 -0.03321039 0.16213256 -0.09395395 0.1773972 0.056924593 -0.122538626 0.14267404
0.037996408 -0.09104083 0.13418804 -0.2159457 -0.05578041 -0.064118475 0.06427531 0.083243236
0.10954299 0.05855547 -0.023186713 -0.09476265 -0.22809057 0.16474645 0.1535092 0.08858484
-0.11900471 0.053039372 -0.2043554 -0.06322309 -0.085105084 0.06541498 -0.084514946 0.030886443
0.0075858636 0.076597005 -0.1269694 -0.1592326 -0.0951708 0.12672256 -0.013387234 0.20804912
0.14170973 0.021862611 -0.03276814 -0.07760614 -0.0703108 -0.041078564 -0.040663414 0.06673688
-0.101914816 -0.071342565 0.16819006 -0.17686869 -0.11005492 0.2273103 0.08236441 -0.03453048
-0.110732794 0.074737675 0.03279753 -0.04863241 -0.042277623 -0.06459913 -0.06940656 0.18429293
0.04943678 0.14611976 0.120889015 -0.115653865 0.024113541 -0.18509345 -0.08973226 0.044256162
-0.045556873 0.1639117 -0.060600404 0.04145566 0.1266179 -0.12273022 0.106197976 -0.14868705
-0.0015108826 0.018107384 -0.0772442 0.062399637 0.18783295 -0.07673148 -0.059730787 0.012242754
-0.2045908 0.032667898 -0.16694203 -0.12770927 -0.104865626 0.1378277 0.1199765 0.11365517
0.04091079 -0.051156327 -0.044012327 -0.0039736964 0.19665934 0.09302425 -0.051289175 -0.096528895
-0.08124837 0.04367928 -0.11248639 -0.20449415 0.055203024 -0.18923211 0.07929951 0.05152112
0.028918376 -0.1589046 -0.1635997 0.13462007 -0.0008028988 0.057807803 -0.089184225 -0.003034095
-0.07365928 0.01097454 -0.2389555 0.07283359 0.04010969 0.025199544 0.020882368 -0.12027301
0.10304649 -0.12466293 0.060706027 -0.0654396 -0.039448008 0.07828317 -0.07272862 0.048548292
0.12297782 -0.15856212 0.032909602 0.027791591 0.016605537 -0.060169455 -0.148498 -0.022246186
0.06534927 -0.08757721 0.06368593 0.05984104 -0.14392897 0.037696324 0.044686817 -0.046845485
0.034354497 0.11673062 -0.3665236 0.061670814 0.13387121 0.15418182 0.11080608 0.056715615
0.09217565 -0.12315353 -0.19196409 -0.18210256 0.16717061 0.103313535 -0.08223947 0.08111941
0.36242917 0.17798418 0.1281543 0.11314372 -0.17424841 -0.070547715 0.25249377 0.144014
-0.08077266 0.114526786 0.10826764 -0.010122664 -0.26405713 0.236903 -0.0820593 0.117312536
-0.053541765 0.016861692 0.1274357 0.047298323 -0.08611488 0.1178355 -0.09292102 0.017547349
-0.1230149 -0.1496886 -0.17274897 0.17377459 0.095505655 0.18588206 0.083237186 -0.22613315
-0.22313428 -0.046936654 -0.090887636 0.16480167 -0.03509158 -0.08943945 -0.14973456 -0.15463904
0.090957165 0.14157394 0.11642309 0.18866222 0.27282354 -0.13907734 0.04659656 0.19162942
0.046510074 0.18441226 -0.0019337268 0.17421463 -0.06043368 0.10974018 0.07151359 -0.026154155
-0.119982734 -0.12346678 -0.14817704 0.08664538 0.13099101 0.004115594 -0.04415455 0.15828663
0.19026692 0.0033998801 -0.10626689 0.08278646 0.014735353 -0.16367954 0.19867419 0.14219579
-0.045414824 0.06606974 -0.10075286 -0.046766043 0.1190119 -0.019988693 -0.1205455 -0.074966535

l2.bias f4 [32]
00000000: 3b67 d6bd ef05 08be eaca c0bd e88d 433e
00000010: 39b7 543e f160 23be 4026 043b 9b68 0d3e
00000020: a079 a83b 997b 3b3e f6f7 90bd ddd8 9abd
00000030: 5f1b 353e 7a9c d6bd e167 043e 54bd 73bc
00000040: a84d 2e3d 6cee 1d3e 4746 753e 1b4a 36be
00000050: 2be5 3ebd 7870 90bd 4e49 4dbd c356 e23d
00000060: a601 bbbc 3b8f 6abd 609c 94bc 5248 12be
00000070: 1e3e 8b3c 5bc5 3ebe e656 59be a579 64be
-0.104689084 -0.13283513 -0.09413703 0.19097102 0.20773019 -0.15954949 0.00201644 0.13809435
0.005141452 0.18308868 -0.07078545 -0.07560895 0.17686222 -0.10479064 0.12930252 -0.014876682
0.042554528 0.15422982 0.2395259 -0.17801706 -0.04660527 -0.07052702 -0.050118737 0.11051705
-0.022827934 -0.0572655 -0.018140972 -0.142854 0.016997393 -0.18629973 -0.21224555 -0.22312029

l3.weight f4 [1, 32]
00000000: c7ac 353e dbf3 203e 47fe 21be 093a 913d
00000010: 1e02 953e 9336 d83d d409 19be 3861 423d
00000020: db6b 07bd b17d 273e 5450 ecbd de9d 6d3e
00000030: 60f4 fb3d ed51 56be ac7a 833e 217e 4b3e
00000040: 49c3 b6bd c44a a53d b3d9 ed3d 231a 1dbe
00000050: 2c60 9c3d 8215 013e 3adc 003e 5142 f5bd
00000060: 481e 88be 3797 ea3d 8951 4f3d ad70 8dbe
00000070: aea5 85bd 27ed 47be cc69 2bbe 2012 ffbd
0.1774169 0.15718023 -0.15819655 0.070911475 0.29103178 0.10557284 -0.14945155 0.047455996
-0.033061843 0.16356541 -0.11538759 0.23204753 0.1230247 -0.2092969 0.2567953 0.19872333
-0.089239664 0.08070901 0.116137885 -0.15342002 0.07635531 0.12605861 0.1258401 -0.119755395
-0.26585603 0.11454623 0.050614867 -0.27625027 -0.065257415 -0.1952406 -0.16739577 -0.12454629
