chp13-policy-gradient-methods/rl/models/CartPole_q_critic90.pth (torch, 14578 bytes, 10 tensors)

l1.weight f4 [32, 5]
0.3450077 0.7834226 1.9338834 0.4159586 -0.40763503 -0.4318188 0.16306734 3.256448
0.2915962 0.0055313613 0.8661551 -0.16520159 -0.35504064 0.24934942 -0.2938699 -0.23701403
-0.049678914 0.7473655 0.9265908 0.45580822 -0.37774506 -0.0332345 0.64732575 -0.58453524
0.004287857 -0.24898447 0.55644727 2.258546 0.8693809 -0.05359735 -0.16605486 0.04400365
-2.4170551 -0.18538538 0.0017757458 -0.3782316 0.586223 -1.5618707 0.33521423 -0.22350724
-1.1919541 -0.19510415 1.312402 0.25942373 -0.17333853 -1.8704314 -0.47309026 0.93381935
-0.27637407 0.014238309 -0.9751676 -0.90480185 -1.5178008 0.23711231 0.40390944 -0.38886848
-0.6402039 -2.772421 -0.9228078 -0.23678876 0.0060218405 1.2538025 -0.63397735 -0.39001268
-0.5902443 -0.0005380872 -0.42587832 -2.6155593 -0.5044804 0.21300723 -1.0527656 -0.8959621
-0.15959466 0.14247797 -0.6368982 -1.8672837 -0.1038131 -0.64850587 -0.05947147 0.0014668922
0.030427167 0.041524485 -3.1817238 -0.048025683 0.0011433309 -1.5364054 -1.2929677 0.46539298
-1.5929564 -4.2195785e-05 1.0576913 0.81837726 -0.856711 0.51121956 0.3341907 -0.19511317
-0.41434437 0.4548675 1.1204841 -0.013799839 1.0548955 0.20086128 0.825989 0.19636314
0.53319776 -0.02159235 1.0766222 -2.4595354 -0.9608486 0.06633415 -0.2806069 0.6683698
1.4621035 -0.3878291 0.10684638 1.8967685 0.5289081 0.29310533 0.28078458 0.0029997258
0.83739513 1.1290191 1.1416397 1.1686858 0.019245133 0.16695197 0.3312365 1.3874228
0.45404974 0.10933141 0.392106 0.82920253 -0.2563492 -0.4653107 -0.48564652 0.7452605
0.63838 -0.40049666 -1.0235994 0.04505242 0.9736472 0.76105803 1.271581 0.90242296
0.36807293 0.35632598 -0.48169813 -2.6709085 -0.89846045 0.17381927 -1.1908683 -0.8887129
-0.9396916 -0.6637914 -0.003148097 -0.21986787 -0.008449605 1.2693872 -0.1971964 0.38211483
00000000: d9a4 b03e 628e 483f 7e89 f73f 87f8 d43e
00000010: 8ab5 d0be 5b17 ddbe 20fb 263e a569 5040
00000020: 194c 953e 6c40 b53b 57bc 5d3f 9b2a 29be
00000030: e3c7 b5be 7455 7f3e 1e76 96be ceb3 72be
00000040: 1e7c 4bbd 5853 3f3f 0e35 6d3f b25f e93e
00000050: cd67 c1be e620 08bd 24b7 253f 1aa4 15bf
00000060: 2781 8c3b c9f5 7ebe 5473 0e3f 058c 1040
00000070: bf8f 5e3f e588 5bbd 490a 2abe 2c3d 343d
00000080: 08b1 1ac0 aad5 3dbe 24c0 e83a 93a7 c1be
00000090: b612 163f 61eb c7bf 33a1 ab3e 15df 64be
000000a0: f491 98bf 62c9 47be cafc a73f 30d3 843e
000000b0: a87f 31be 4c6a efbf e338 f2be c90e 6f3f
000000c0: e780 8dbe cc47 693c 95a4 79bf 18a1 67bf
000000d0: 4c47 c2bf 92cd 723e 38cd ce3e c519 c7be
000000e0: 67e4 23bf 586f 31c0 223d 6cbf c178 72be
000000f0: dc52 c53b 9a7c a03f 574c 22bf beaf c7be
00000100: 401a 17bf 6c0e 0dba b90c dabe 5365 27c0
00000110: a125 01bf 911e 5a3e 06c1 86bf c65d 65bf
00000120: c86c 23be bfe5 113e c30b 23bf 2703 efbf
00000130: f69b d4bd 7b04 26bf 5b98 73bd bc44 c03a
00000140: 6542 f93c 9415 2a3d 5da1 4bc0 94b6 44bd
00000150: d2db 953a efa8 c4bf f77f a5bf fd47 ee3e
00000160: ffe5 cbbf 61fb 30b8 6e62 873f 2c81 513f
00000170: 6951 5bbf 49df 023f 0b1b ab3e bfcb 47be
00000180: f224 d4be 65e4 e83e 066c 8f3f b818 62bc
00000190: d106 873f 94ae 4d3e 0474 533f 6b13 493e
000001a0: a67f 083f 71e2 b0bc c2ce 893f 0769 1dc0
000001b0: 2dfa 75bf 33da 873d b5ab 8fbe 491a 2b3f
000001c0: 3526 bb3f 8991 c6be 46d2 da3d 4fc9 f23f
000001d0: 8566 073f e711 963e ffc2 8f3e 0c97 443b
000001e0: 875f 563f b383 903f 4021 923f 7f97 953f
000001f0: f8a7 9d3c 75f5 2a3e d597 a93e 1297 b13f
00000200: 3579 e83e 25e9 df3d 1ec2 c83e 9e46 543f
00000210: 3440 83be 343d eebe a9a6 f8be 64c9 3e3f
00000220: df6c 233f e60d cdbe 4e05 83bf e388 383d
00000230: f140 793f b3d4 423f 2bc3 a23f 3105 673f
00000240: 0e74 bc3e 5c70 b63e 23a1 f6be 2af0 2ac0
00000250: 8101 66bf aefd 313e 5f6e 98bf b082 63bf
00000260: a18f 70bf 3cee 29bf 4e50 4ebb 0b25 61be
00000270: 3670 0abc 487b a23f daed 49be 8ea4 c33e

l1.bias f4 [32]
1.4085472 2.2219694 0.515707 1.8516861 4.6019354 1.5522834 3.6995723 2.893373
0.7045339 0.8331216 2.698646 -0.2121583 0.0063946177 -0.092941046 0.85570115 0.2891
1.1903666 1.7096655 1.8863982 0.7062992 -0.37441525 1.6708013 2.9269564 0.5823452
0.9174727 0.19321117 -0.59862524 2.944924 0.73308486 1.926479 1.2487079 -0.7381698
00000000: 464b b43f bf34 0e40 6005 043f 0d04 ed3f
00000010: 0e43 9340 39b1 c63f cbc5 6c40 062d 3940
00000020: 555c 343f 7547 553f 9eb6 2c40 0740 59be
00000030: f189 d13b e057 bebd 3b0f 5b3f ea04 943e
00000040: ef5d 983f 52d6 da3f 7f75 f13f 06d0 343f
00000050: 5bb3 bfbe d1dc d53f 4153 3b40 9314 153f
00000060: 7edf 6a3f 26d9 453e 813f 19bf a379 3c40
00000070: 73ab 3b3f dd96 f63f a9d5 9f3f b2f8 3cbf

l2.weight f4 [32, 32]
-1.5643443 -0.09615822 -1.5467913 -0.1515221 -0.15406647 -0.50565255 -0.37513635 -0.7346656
-0.29473487 -0.10080692 0.087696 0.44897902 -1.112359 0.45612583 0.07768814 -0.25824156
-0.034420975 0.40514377 0.15577647 -0.95078444 -0.06933475 0.55339944 -0.33033666 -0.5407616
-0.6285368 -0.10572393 -2.0828214 0.64186573 -0.054501217 0.1758144 0.26592913 -0.17125484
0.3569103 0.42643532 0.14402565 -0.028841283 0.34182116 0.88730687 0.49579 0.6384348
0.41183373 0.41426626 0.08374151 0.22197016 0.18086652 0.08045867 -0.0025636852 1.1828085
1.9908268 1.0966464 0.24274836 0.68686104 -0.03470427 0.29625437 0.42969868 1.0405349
0.13284004 0.8436743 0.28169486 0.88427633 0.038792536 0.23679584 1.2140098 -0.025475105
-0.40317583 -0.08630863 -0.07543681 0.12640457 0.7955615 0.026976913 0.915199 0.7707905
0.008608723 0.053591784 0.32334343 0.65702647 0.18616168 0.1801186 0.006799313 -1.0380985
0.32013863 -0.8025592 0.25910676 0.40802205 0.39632294 0.18682066 0.19498533 -1.009501
0.06520567 -0.1774592 -0.07652744 0.39625937 0.16638455 0.3706065 0.585579 -0.013134535
-0.18274109 0.063025065 0.15133841 0.269821 -0.07443452 -0.5406074 -0.08926532 0.089862816
0.17550072 0.32362056 0.07016669 0.4339803 0.48671696 0.37281737 0.3143871 -0.6243058
-0.9911351 -0.3924086 0.21081688 -0.43913472 -0.0034179196 -0.007339429 0.18470103 -0.5141347
0.35646358 0.13425344 -0.0271858 0.13088095 -0.015854195 0.294332 0.08671781 0.23449212
-0.43143046 -0.672989 -0.30655453 0.31061846 0.81213313 -0.17754868 0.6746947 1.0123203
0.05451198 0.2242216 0.24491891 0.5426258 0.107251465 0.24239922 0.42341354 -0.9489482
-0.38641495 -0.6817145 0.29365185 -0.019075578 0.17930564 0.14821945 0.35211256 -1.0570064
0.37442872 0.439246 0.2732393 0.22897272 0.1768541 0.43252555 0.20085385 0.022999503
0.3882334 0.6873145 0.20813099 0.11958203 0.4809093 1.1954104 0.14416313 0.14184171
0.2021014 0.28572422 -0.039821874 -0.3468026 -0.0536475 -0.5156662 -0.1369618 1.1423228
0.41885588 0.77046037 0.14852151 0.90405905 0.017850788 0.22512111 0.5250668 1.1328281
0.38313076 0.83240575 0.32536113 0.76020473 0.339558 -0.016332632 -0.3904076 0.20743987
-0.13842481 -0.124118626 -1.4969372 0.27124867 -0.43729052 0.034475986 -0.9945873 0.047930676
-0.30110744 -0.05932675 -0.1126746 0.23708753 -0.24487793 -0.01643918 -0.22792694 0.13144237
-0.96289414 0.20849401 -1.3272713 -0.4060167 -0.9601966 -1.1449689 0.56189454 0.30207834
0.46580872 -0.84873456 -1.0567664 -0.24314934 -0.101101056 -2.060923 0.37416232 -1.1866343
0.069876485 0.111775786 -0.11520563 0.14624576 0.12494505 0.5166927 -0.57109934 0.07454118
0.16095237 -0.3405669 0.040416144 0.66315615 -0.11658354 0.55165136 -0.123822995 -0.48154166
1.7794579 -0.6699496 0.13904604 0.14870451 -0.4926068 0.1178404 -0.282753 -0.6595874
-0.15991822 1.1338907 -0.11034748 0.12320344 -0.500099 0.68490094 0.15369356 -0.06649814
00000000: 6f3c c8bf 9aee c4bd 42fd c5bf 9c28 1bbe
00000010: 9ac3 1dbe 7272 01bf df11 c0be 0b13 3cbf
00000020: 7de7 96be dc73 cebd f699 b33d 94e0 e53e
00000030: c861 8ebf 5389 e93e f61a 9f3d 3d38 84be
00000040: 02fd 0cbd 016f cf3e de83 1f3e 9c66 73bf
00000050: 61ff 8dbd 96ab 0d3f e321 a9be 5a6f 0abf
00000060: cae7 20bf ca85 d8bd f24c 05c0 5051 243f
00000070: ab3c 5fbd b108 343e dd27 883e 6e5d 2fbe
00000080: f2bc b63e bb55 da3e 767b 133e 8e44 ecbc
00000090: 2f03 af3e 8b26 633f 30d8 fd3e 7770 233f
000000a0: dfdb d23e b51a d43e ab80 ab3d 254c 633e
000000b0: 1335 393e 84c7 a43d 8003 28bb 4566 973f
000000c0: 6ad3 fe3f e95e 8c3f 0793 783e 20d6 2f3f
000000d0: 1126 0ebd a7ae 973e 7701 dc3e 3f30 853f
000000e0: 3807 083e 0afb 573f 4f3a 903e ef5f 623f
000000f0: ece4 1e3d 9c7a 723e ac64 9b3f 2bb1 d0bc
00000100: 106d cebe 94c2 b0bd 9d7e 9abd 3370 013e
00000110: eba9 4b3f b0fe dc3c 7b4a 6a3f 8752 453f
00000120: 9a0b 0d3c 0f83 5b3d 458d a53e e332 283f
00000130: 2ba1 3e3e 0371 383e c5cc de3b 69e0 84bf
00000140: 36e9 a33e 8574 4dbf a4a9 843e 44e8 d03e
00000150: d7ea ca3e ea4d 3f3e 3caa 473e 5437 81bf
00000160: 8d8a 853d ddb7 35be 6bba 9cbd 82e2 ca3e
00000170: b660 2a3e 23c0 bd3e 81e8 153f 3c32 57bc
00000180: 7b20 3bbe 4913 813d 75f8 1a3e fa25 8a3e
00000190: 2071 98bd 3f65 0abf bcd0 b6bd ff09 b83d
000001a0: 76b6 333e 98b1 a53e 8eb3 8f3d aa32 de3e
000001b0: f732 f93e ebe1 be3e 59f7 a03e 81d2 1fbf
000001c0: 08bb 7dbf c8e9 c8be 61e0 573e 44d6 e0be
000001d0: 2dff 5fbb 987f f0bb 4422 3d3e 559e 03bf
000001e0: 6582 b63e bc79 093e c1b4 debc a805 063e
000001f0: a8e0 81bc afb2 963e 1b99 b13d b41e 703e
00000200: 74e4 dcbe 0249 2cbf b7f4 9cbe 6209 9f3e
00000210: f5e7 4f3f 52cf 35be cbb8 2c3f b693 813f
00000220: f447 5f3d 599a 653e 06cc 7a3e 86e9 0a3f
00000230: a8a6 db3d 8037 783e a9c9 d83e 45ee 72bf
00000240: 2ed8 c5be d784 2ebf 8959 963e 6344 9cbc
00000250: e69b 373e d7c6 173e 1948 b43e fc4b 87bf
00000260: 1fb5 bf3e dae4 e03e 06e6 8b3e d377 6a3e
00000270: 3e19 353e fd73 dd3e a2ac 4d3e 7469 bc3c
00000280: 87c6 c63e d8f3 2f3f 4a20 553e 6ce7 f43d
00000290: be39 f63e 3503 993f 809f 133e f43e 113e
000002a0: abf3 4e3e 724a 923e 431c 23bd 1c90 b1be
000002b0: 7bbd 5bbd b302 04bf b73f 0cbe a237 923f
000002c0: 4774 d63e e43c 453f 0616 183e 6a70 673f
000002d0: d13b 923c 2686 663e c76a 063f 8300 913f
000002e0: b729 c43e 8b18 553f bc95 a63e c79c 423f
000002f0: 8cda ad3e 03cc 85bc 81e3 c7be 1e6b 543e
00000300: 3cbf 0dbe e831 febd a39b bfbf 1be1 8a3e
00000310: 8be4 dfbe b136 0d3d 469d 7ebf f552 443d
00000320: c12a 9abe 9b00 73bd f1c1 e6bd 13c7 723e
00000330: 48c1 7abe 76ab 86bc ae65 69be d498 063e
00000340: 3b80 76bf 747f 553e 07e4 a9bf 6ce1 cfbe
00000350: 72cf 75bf 578e 92bf 52d8 0f3f 03aa 9a3e
00000360: 7b7e ee3e ab46 59bf 1f44 87bf 24fc 78be
00000370: 120e cfbd 2ae6 03c0 3492 bf3e a2e3 97bf
00000380: 671b 8f3d b4ea e43d eef0 ebbd 73c1 153e
00000390: 31e3 ff3d f945 043f 9133 12bf 0ca9 983d
000003a0: b3d0 243e c95e aebe 668b 253d 9ac4 293f
000003b0: 5ac3 eebd 0639 0d3f e996 fdbd a18c f6be
000003c0: 47c5 e33f d181 2bbf 1662 0e3e ff45 183e
000003d0: f536 fcbe 4f56 f13d 00c5 90be b8da 28bf
000003e0: 9ac1 23be 5523 913f dcfd e1bd 1652 fc3d
000003f0: 7d06 00bf ab55 2f3f d861 1d3e 2d30 88bd

l2.bias f4 [32]
-1.3869545 1.641899 0.8410409 -0.6423232 -0.097850636 0.9587874 -0.79123646 0.6514016
1.3872973 1.6046176 0.52609193 1.552615 -1.4239118 1.4340085 -0.015109731 0.81721514
1.4966514 1.5752046 1.6072528 -1.6735324 -0.41430986 1.253809 0.2898693 1.0691875
-0.48675212 0.50603896 1.5182776 0.88186085 1.7134095 -0.9252396 1.6460083 1.8215742
00000000: ba87 b1bf bf29 d23f 754e 573f 4b6f 24bf
00000010: ea65 c8bd 1773 753f 798e 4abf 41c2 263f
00000020: f592 b13f 1c64 cd3f f6ad 063f 17bc c63f
00000030: be42 b6bf 978d b73f ce8e 77bc 0335 513f
00000040: 4692 bf3f 4ea0 c93f 76ba cd3f 4f36 d6bf
00000050: 6c20 d4be d07c a03f c069 943e 23db 883f
00000060: 9337 f9be c58b 013f ec56 c23f a2c1 613f
00000070: 0151 db3f 81dc 6cbf 66b0 d23f 5829 e93f

l3.weight f4 [1, 32]
1.5402529 -1.1530623 1.3415183 1.2048804 1.7095542 -1.5029469 1.3870623 -2.6649325
-1.0590005 2.3629923 1.6432347 -1.076117 0.99755293 -1.0399554 1.3734399 2.719436
2.2034059 -1.0878053 -1.2406778 1.0401198 -1.3407253 2.012961 -1.0539517 -1.8544394
1.0936348 -1.5840251 -1.4814427 2.0993567 -1.2880871 0.43797222 -2.256946 -1.02192
00000000: 0227 c53f 8c97 93bf dfb6 ab3f 8539 9a3f
00000010: acd2 da3f 9060 c0bf 428b b13f 418e 2ac0
00000020: 548d 87bf 443b 1740 8455 d23f 34be 89bf
00000030: a15f 7f3f 421d 85bf e1cc af3f 3d0b 2e40
00000040: 9a04 0d40 343d 8bbf 88ce 9ebf a522 853f
00000050: e39c abbf 5ad4 0040 e4e7 86bf 455e edbf
00000060: 3afc 8b3f 56c1 cabf ea9f bdbf dc5b 0640
00000070: 0ae0 a4bf e53d e03e ce71 10c0 46ce 82bf

l4.weight f4 [32, 5]
-0.3224399 -0.38788313 1.7465216 0.9865035 0.5288223 -1.4500197 -1.2685454 0.5865121
-1.6830705 -0.00023279544 0.2217198 -0.7596305 -1.8254812 -0.6639873 -0.71175283 0.14054236
0.46911043 1.3781267 0.45958814 -0.13536108 -0.22394837 -0.7985248 -2.143363 -0.6873025
0.2223736 0.16081673 -0.37876314 -2.073999 0.15316065 -0.04828996 -0.15338671 -0.6721096
0.5111803 1.252132 -0.029078834 -0.15850055 -0.19984283 1.1847066 -0.09837699 -0.36307654
-0.5307065 0.007043521 2.3862524 -0.33360934 0.098241314 -0.31310436 0.09848794 1.278625
-0.22601047 -0.077826194 -2.2719839 -0.14460087 -0.7479328 -0.09005503 -0.0010522316 1.9283549
0.7839405 0.5809917 0.37961647 -0.0012001381 1.0292205 1.3842514 -0.8205488 0.027886292
-0.5149982 0.66141135 0.414495 1.0842417 0.574266 0.5753421 0.53327054 0.11491625
-0.96300083 -1.7226102 0.034306567 -0.5901452 -0.17427811 -2.578617 -1.4549665 -0.30849046
-0.77230126 0.17948158 0.24147986 -0.20670417 -0.64074886 -0.10438716 1.2406546 -0.03454535
1.1727494 0.15593578 -0.25425225 0.24028777 1.908477 0.22721098 -0.0071827616 0.01447264
0.029833129 -3.3696852 -0.0916952 0.0059003867 -1.3094455 -1.0023912 -0.89906144 -0.7992253
0.001510102 0.36776218 -0.0565073 -0.3067266 0.79621935 -0.17755836 0.37857345 0.33026397
-0.24900314 0.31450605 0.103916325 1.6532713 0.4478251 0.22219515 0.22791559 0.00022935485
-0.047833037 0.35611412 1.1326318 -0.48955485 0.58626986 -0.29587725 -0.8731094 -1.3192278
-0.4850011 0.62087584 0.15686119 0.43554196 0.901628 0.27500743 -0.19511823 -0.0032223894
-0.17131999 -2.3519871 -0.38197693 0.111875534 -0.27294132 -0.14109915 1.4115045 0.8259188
-0.14340943 0.30781317 -0.32721484 -0.6700978 -0.18161875 0.6127381 -1.6505575 -0.20361432
0.46634915 1.0121493 -0.33050504 -0.5512623 0.12051932 -1.9070293 -0.3454547 0.0005293208
00000000: d816 a5be 9e98 c6be 058e df3f 7e8b 7c3f
00000010: e660 073f 3f9a b9bf b25f a2bf a825 163f
00000020: db6e d7bf 8d1a 74b9 840a 633e 2577 42bf
00000030: 5ea9 e9bf 12fb 29bf 6f35 36bf 56ea 0f3e
00000040: 3e2f f03e 7566 b03f 234f eb3e 189c 0abe
00000050: b952 65be 1f6c 4cbf dc2c 09c0 0ef3 2fbf
00000060: e8b5 633e 24ad 243e 3eed c1be 66bc 04c0
00000070: 25d6 1c3e b1cb 45bd 6811 1dbe 600f 2cbf
00000080: b6dc 023f dd45 a03f bc36 eebc f84d 22be
00000090: 99a3 4cbe 77a4 973f e079 c9bd 2be5 b9be
000000a0: 62dc 07bf 56cd e63b 5cb8 1840 d8ce aabe
000000b0: be32 c93d 374f a0be 0cb4 c93d fca9 a33f
000000c0: 4a6f 67be 5763 9fbd 2f68 11c0 4012 14be
000000d0: 8678 3fbf c66e b8bd 09eb 89ba 55d4 f63f
000000e0: 53b0 483f dfbb 143f 175d c23e f44d 9dba
000000f0: 7fbd 833f 262f b13f 7c0f 52bf cb71 e43c
00000100: ecd6 03bf 4152 293f b038 d43e 6fc8 8a3f
00000110: 1903 133f 9f49 133f 6b84 083f 3659 eb3d
00000120: 3987 76bf 7e7e dcbf 0b85 0c3d c113 17bf
00000130: f675 32be 1008 25c0 583c babf 76f2 9dbe
00000140: 89b5 45bf 05ca 373e 7f46 773e 42aa 53be
00000150: 1e08 24bf efc8 d5bd c5cd 9e3f 6d7f 0dbd
00000160: a71c 963f a1ad 1f3e 5a2d 82be ff0d 763e
00000170: f948 f43f ffa9 683e 5f5d ebbb a71e 6d3c
00000180: 9b64 f43c eca8 57c0 b1ca bbbd 0858 c13b
00000190: e99b a7bf 5b4e 80bf e428 66bf 079a 4cbf
000001a0: 9dee c53a 534b bc3e 3374 67bd 450b 9dbe
000001b0: 08d5 4b3f dcd1 35be 61d4 c13e 5c18 a93e
000001c0: aefa 7ebe f006 a13e 15d2 d43d 659e d33f
000001d0: 5549 e53e 2087 633e b462 693e f97e 7039
000001e0: 93ec 43bd 9754 b63e 14fa 903f efa6 fabe
000001f0: c815 163f 397d 97be 1984 5fbf 75dc a8bf
00000200: 1052 f8be b8f1 1e3f 38a0 203e 5bff de3e
00000210: 18d1 663f c6cd 8c3e 13cd 47be b92e 53bb
00000220: 826e 2fbe f586 16c0 7b92 c3be 001f e53d
00000230: f7be 8bbe 4c7c 10be 2eac b43f 6a6f 533f
00000240: ecd9 12be b099 9d3e b488 a7be 888b 2bbf
00000250: 44fa 39be 67dc 1c3f 7845 d3bf 4680 50be
00000260: 51c5 ee3e 1c8e 813f f537 a9be 871f 0dbf
00000270: d5d2 f63d 8919 f4bf 70df b0be 1ec2 0a3a

l4.bias f4 [32]
2.226124 1.4906042 -1.3506069 -0.6433741 1.0917268 2.436666 1.0945821 -0.9494125
2.7356305 2.8281193 0.24731235 0.9830997 2.5335064 0.21734132 2.3830502 2.6381278
0.300824 3.421653 0.86192185 1.2147752 1.4887251 0.35260078 -1.9648069 0.40841103
2.3720903 0.8931797 0.5669068 2.7926168 0.8439812 -0.26992133 1.9301487 3.5367439
00000000: d178 0e40 1ecc be3f b0e0 acbf 2ab4 24bf
00000010: b4bd 8b3f 56f2 1b40 441b 8c3f b30c 73bf
00000020: 9214 2f40 e8ff 3440 733f 7d3e 6cac 7b3f
00000030: f824 2240 b98e 5e3e e583 1840 16d7 2840
00000040: 9a05 9a3e 5dfc 5a40 e9a6 5c3f c17d 9b3f
00000050: 8b8e be3f 1788 b43e cb7e fbbf 401b d13e
00000060: 54d0 1740 6da7 643f ce20 113f 3cba 3240
00000070: 270f 583f 2133 8abe 1d0f f73f 035a 6240

l5.weight f4 [32, 32]
0.20452559 0.5402999 -0.26417422 0.5472659 0.10510225 0.44544905 0.25541502 0.057578757
0.103043035 -0.2212535 0.94029844 0.63739854 -0.05728022 0.22352791 0.58077794 -0.057356466
0.2684652 0.6725178 1.2495669 1.8314599 0.68979144 -0.11885714 0.28665888 0.7679879
0.1430125 -0.02009272 0.58500487 0.3763445 -0.15994895 0.13267979 0.25190255 -0.20739718
0.08358518 1.0225089 -0.14074019 0.9534465 0.050034612 0.4866193 0.6321546 -0.19042188
0.40707976 0.07990527 1.1502181 0.7319876 0.34812543 0.45655102 0.80827403 0.3438053
0.049163282 0.58511937 1.2812209 2.1891887 1.0388247 0.26069182 0.24901597 1.0721546
0.19856071 0.12791719 0.5700668 0.3726749 0.024820432 0.17287488 0.37003103 0.07158219
-0.45352775 -1.1779263 -0.24180596 -0.010701644 0.6172384 -0.11345569 -0.18850529 -0.1456967
-1.1596619 0.023157492 -0.5970983 -0.17080887 0.21842477 -0.4887009 0.41345653 0.1348576
0.014769554 -0.08502377 0.958235 1.0733783 -0.6858021 -0.027040547 0.6903853 -0.10543142
-0.25988683 0.32782602 0.7120829 0.33463776 -0.32828632 0.41664833 -0.425423 -1.4354751
0.008730281 -0.5198936 0.36450046 -0.0030385067 0.4350245 -0.084592685 -0.037059315 0.0741128
-0.492454 0.059612572 -0.20039485 0.04106531 0.18200234 -0.34070548 0.3314839 0.3813424
0.39203608 0.09104006 -0.07186844 -0.37473223 -0.14873536 -0.013507523 0.39001808 -0.20465569
-0.029001268 0.4316522 -0.94783556 0.09880876 -0.059508972 0.33971336 0.1343604 0.3894808
-0.035288088 -0.70646256 -0.24035743 0.29425022 -0.22849321 -0.056608353 0.5223896 -0.18879578
-0.9310054 -0.43641564 0.28374264 0.8583863 0.18537247 0.51649755 0.5232798 -0.5745497
0.13964859 0.3065538 1.1746036 0.96628535 -0.35358796 0.21547621 -0.052400604 0.9989965
-0.072584875 -0.37073565 0.9349097 -0.005489449 -0.09599606 0.13797112 0.12972839 -4.244828
0.3171394 -0.37452814 0.09853179 0.6486921 0.62182945 1.0690649 0.72509676 0.012472449
0.44011176 0.66356665 -1.4421712 -0.47043097 0.24965517 -0.18955709 0.7210903 0.4575773
0.32806116 0.35843885 0.6426458 0.5919845 -0.88829917 0.13213108 -1.0511061 -0.53382057
0.123767905 0.34189674 -0.38959935 0.6937212 0.3995009 0.08850303 0.38398966 1.8036798
0.37840044 1.0975283 -0.35399115 1.0257007 0.06893816 0.80290395 0.6774119 -0.018710246
0.6166067 0.26815215 1.0428685 0.81990474 0.34157187 0.5662881 1.1506824 0.37473187
0.18562141 0.46267143 1.8561645 1.0188308 0.76290494 0.19204988 0.37354302 1.1004457
0.5049744 0.1183142 0.74293983 0.41694272 0.26929554 0.2768833 0.36045367 -0.2859762
0.33162528 0.8972168 -0.14361697 0.841848 0.0164055 0.39399406 0.573386 -0.1755929
0.45065355 0.3051221 1.091031 0.4875431 0.26292014 0.019437697 0.7328319 0.23441516
0.15849003 0.28043088 1.3601047 2.158605 1.2267089 0.1481117 0.26235923 0.93481165
0.243136 0.099753745 0.54001373 0.102352425 -0.0006670996 -0.06182709 0.51570106 0.04856527
00000000: 286f 513e 1851 0a3f d841 87be 9e19 0c3f
00000010: d93f d73d e611 e43e c2c5 823e b4d7 6b3d
00000020: 3a08 d33d 4790 62be 66b7 703f 8d2c 233f
00000030: aa9e 6abd 80e4 643e ddad 143f 9dee 6abd
00000040: 4574 893e 202a 2c3f cff1 9f3f 476d ea3f
00000050: 2c96 303f 5f6b f3bd f4c4 923e db9a 443f
00000060: de71 123e 7d99 a4bc e1c2 153f 3ab0 c03e
00000070: a8c9 23be 36dd 073e 5ff9 803e ed5f 54be
00000080: b52e ab3d 92e1 823f 321e 10be 1215 743f
00000090: 18f1 4c3d 2a26 f93e e2d4 213f f4fd 42be
000000a0: c26c d03e 60a5 a33d 593a 933f 8a63 3b3f
000000b0: 7f3d b23e 0ec1 e93e 0ceb 4e3f 4007 b03e
000000c0: 705f 493d 62ca 153f 0cff a33f ab1b 0c40
000000d0: 35f8 843f 6679 853e 0bfe 7e3e 5d3c 893f
000000e0: 8053 4b3e b9fc 023e e6ef 113f 3fcf be3e
000000f0: 3854 cb3c 1d06 313e b574 bd3e af99 923d
00000100: ca34 e8be 4ac6 96bf fb9b 77be f355 2fbc
00000110: 5603 1e3f 755b e8bd 8807 41be 8431 15be
00000120: cd6f 94bf c8b4 bd3c 6fdb 18bf 85e8 2ebe
00000130: beaa 5f3e 0137 fabe 93b0 d33e 1c18 0a3e
00000140: 00fc 713c f120 aebd e44e 753f 7664 893f
00000150: ba90 2fbf 2384 ddbc 17bd 303f 6eec d7bd
00000160: e30f 85be d0d8 a73e 114b 363f a455 ab3e
00000170: 2515 a8be ee52 d53e 0bd1 d9be a6bd b7bf
00000180: 7409 0f3c bf17 05bf ce9f ba3e af21 47bb
00000190: 88bb de3e ee3e adbd 82cb 17bd 74c8 973d
000001a0: ee22 fcbe 502c 743d 4f34 4dbe 1934 283d
000001b0: d25e 3a3e f370 aebe 42b8 a93e 503f c33e
000001c0: f4b8 c83e 3673 ba3d c32f 93bd e7dc bfbe
000001d0: 154e 18be a84e 5dbc 73b0 c73e 4391 51be
000001e0: 1194 edbc 8401 dd3e 5aa5 72bf 3f5c ca3d
000001f0: aebf 73bd e9ee ad3e c695 093e 076a c73e
00000200: 3e8a 10bd bbda 34bf 4220 76be f7a7 963e
00000210: 20fa 69be 29de 67bd 53bb 053f ae53 41be
00000220: 5f56 6ebf df71 dfbe b746 913e 34bf 5b3f
00000230: 48d2 3d3e 2f39 043f aaf5 053f b015 13bf
00000240: 0a00 0f3e 9ff4 9c3e 6959 963f 7a5e 773f
00000250: 7b09 b5be cca5 5c3e 04a2 56bd 3cbe 7f3f
00000260: 61a7 94bd 10d1 bdbe 3e56 6f3f d6e0 b3bb
00000270: 9599 c4bd 4d48 0d3e 85d7 043e a2d5 87c0
00000280: 1860 a23e 27c2 bfbe 09cb c93d af10 263f
00000290: 3730 1f3f 1ed7 883f f19f 393f 3e59 4c3c
000002a0: 5456 e13e 81df 293f 1199 b8bf 54dc f0be
000002b0: 9ba5 7f3e 411b 42be 6099 383f 9247 ea3e
000002c0: a2f7 a73e 4c85 b73e 6f84 243f 4c8c 173f
000002d0: 9367 63bf 5f4d 073e a58a 86bf 77a8 08bf
000002e0: 077a fd3d 170d af3e 9179 c7be b697 313f
000002f0: 628b cc3e 1441 b53d 4b9a c43e fbde e63f
00000300: b4bd c13e cf7b 8c3f 543e b5be 294a 833f
00000310: 732f 8d3d 1d8b 4d3f de6a 2d3f 3b46 99bc
00000320: f0d9 1d3f 3d4b 893e b77c 853f 47e5 513f
00000330: 82e2 ae3e 42f8 103f 9049 933f dbdc bf3e
00000340: 8a13 3e3e 45e3 ec3e cc96 ed3f 0c69 823f
00000350: bd4d 433f b9a8 443e 0841 bf3e 68db 8c3f
00000360: 0146 013f b74e f23d 4e31 3e3f 8479 d53e
00000370: 1be1 893e a6c3 8d3e 628d b83e 796b 92be
00000380: caca a93e 00b0 653f 5410 13be 5a83 573f
00000390: d464 863c 97b9 c93e 6dc9 123f a0ce 33be
000003a0: 10bc e63e f738 9c3e e7a6 8b3f 409f f93e
000003b0: 789d 863e ce3b 9f3c df9a 3b3f 870a 703e
000003c0: 364b 223e a394 8f3e e917 ae3f 9626 0a40
000003d0: cc04 9d3f 98aa 173e f353 863e d14f 6f3f
000003e0: a5f8 783e b14b cc3d 573e 0a3f 269e d13d
000003f0: 4ce0 2eba 673e 7dbd fc04 043f 60ec 463d

l5.bias f4 [32]
1.6455071 1.5870023 0.23912802 -0.53252643 0.23230578 0.7347072 1.5091435 1.6395897
1.6159956 1.3660461 -0.1005028 0.5519277 -0.37809747 0.9735501 -1.6325928 1.4015112
1.6441845 -0.41652855 -0.9670379 -0.5095076 1.7782884 -0.45057657 1.8357456 -0.14076918
1.4797752 1.1353139 1.8037182 1.293995 1.8472707 -0.29332575 -0.6810488 -1.3829991
00000000: fa9f d23f e422 cb3f fadd 743e a753 08bf
00000010: 91e1 6d3e c515 3c3f 9d2b c13f 13de d13f
00000020: f2d8 ce3f 99da ae3f 69d4 cdbd 224b 0d3f
00000030: fe95 c1be 943a 793f cdf8 d0bf b864 b33f
00000040: a374 d23f 3b43 d5be cc8f 77bf 176f 02bf
00000050: f49e e33f f9b1 e6be b6f9 ea3f cc25 10be
00000060: 4669 bd3f f751 913f 3de0 e63f a1a1 a53f
00000070: 5e73 ec3f cb2e 96be 3759 2ebf 1d06 b1bf

l6.weight f4 [1, 32]
-1.2766736 -0.96329105 -1.8348736 1.5268908 -1.1311562 2.3857913 -1.5351546 -1.1634228
-1.0820825 -1.1082344 0.6995491 1.4849912 0.52478486 -1.1660731 1.0505021 2.2271595
-1.1346859 0.747584 1.7917849 1.2021418 -1.4410685 0.56422144 -0.9823164 0.072026774
-1.4396592 -1.3402516 -1.8893688 2.3055985 -1.3191291 1.2890675 0.8949986 1.5982723
00000000: 0a6a a3bf 3e9a 76bf 23dd eabf 2871 c33f
00000010: bac9 90bf ceb0 1840 f27f c4bf 0aeb 94bf
00000020: ae81 8abf a0da 8dbf a615 333f 3114 be3f
00000030: 4d58 063f e241 95bf da76 863f c889 0e40
00000040: 633d 91bf aa61 3f3f 3559 e53f c8df 993f
00000050: ef74 b8bf d170 103f 1679 7bbf c682 933d
00000060: c146 b8bf 5d8d abbf d6d6 f1bf ed8e 1340
00000070: 39d9 a8bf 2a00 a53f a11e 653f 3094 cc3f
