chp13-policy-gradient-methods/rl/models/CartPoleUp_actor90.pth (torch, 7670 bytes, 5 tensors)

l1.weight f4 [32, 4]
000000 de 93 66 be 72 33 6d 3f 5d 2c 96 be 13 b1 5f bf
       -0.22517344 0.92656624 -0.29330721 -0.8737957
000010 c6 1d 15 be 1e d5 29 3d d6 d8 26 3e 1f 9a 64 3f
       -0.14562139 0.04146301 0.16293654 0.8929767
000020 66 e9 bd be 7a 9a 3c be 5a b8 d1 bd 24 f7 e7 3e
       -0.3709213 -0.18418303 -0.102402404 0.4530574
000030 2d 9c 02 bf d1 51 a1 be ce 59 33 3e bc ac 77 3f
       -0.51019555 -0.31507733 0.17514727 0.96747947
000040 2f 77 b4 3e 5c 0c a1 3f 38 73 38 39 ea 31 d0 be
       0.3524718 1.2581897 0.0001759053 -0.4066308
000050 79 a9 4f 3f 2d 57 82 3e b3 c5 c2 bd c2 0d d8 3e
       0.8111797 0.25457135 -0.095103644 0.42197996
000060 eb 0f 5c 3f b3 8c 09 3f 32 04 91 3e d7 cc b1 be
       0.8596179 0.53730315 0.28323513 -0.34726593
000070 79 ad c3 be 87 83 25 be c0 49 d2 bd e8 e4 23 3f
       -0.38218287 -0.16163455 -0.10267973 0.6402116
000080 2a 58 79 bd dc 1d d7 3c 6f 3b 82 be d3 fa 0d bf
       -0.060875095 0.026259355 -0.2543597 -0.5546085
000090 1b 85 de be 04 d4 0d 3f e6 e0 2c 3e 38 dd 20 be
       -0.43460926 0.55401635 0.16882667 -0.15709388
0000a0 4c 52 84 bd ca e0 2e be d4 bb 82 bc 4e e4 79 bf
       -0.064610094 -0.17077938 -0.015958704 -0.9761399
0000b0 83 97 1f bf f5 92 ae bf 19 d5 bd bd e9 04 ac 3e
       -0.62340564 -1.3638598 -0.09269161 0.33597496
0000c0 d2 4d 06 3d 8b 84 c1 be 2a d4 d2 3e 13 65 88 3f
       0.03278906 -0.37796435 0.41177493 1.0655845
0000d0 80 23 3a 3f 9d d0 d8 3e 25 73 6a 3e 80 47 ee be
       0.7271042 0.4234666 0.22895487 -0.46538925
0000e0 e2 c5 09 bf 20 58 d8 be 4e 0a bc be 31 b3 bb be
       -0.5381757 -0.42254734 -0.36726612 -0.3666015
0000f0 8d 19 d7 3e fe 25 4e bd 63 0a 68 be ab 4c 5b 3f
       0.4201168 -0.0503292 -0.22660212 0.8566386
000100 3b 7e a3 3e d3 47 ca bd 63 5f c7 3d 7a 40 26 3f
       0.31932244 -0.09876981 0.097349904 0.64942133
000110 c1 f5 12 40 c5 f1 e3 3f a9 f7 cf bb 91 52 df be
       2.2962496 1.7808157 -0.006346662 -0.4361768
000120 ba fc 2a 3f 30 cd fb 3e 82 b0 7f 3e 93 35 2a 3f
       0.6679188 0.49179983 0.24969676 0.66488
000130 eb 2e ad bc a1 87 d4 be 72 e0 7a 3c 21 18 10 bf
       -0.021140536 -0.41509727 0.015312301 -0.5628682
000140 94 6e 01 bf b9 03 d9 3e 12 7e 84 3e 6b 2b 7f bf
       -0.50559354 0.42385653 0.25877434 -0.99675626
000150 e8 8e 62 3d 70 8e 7d 3e d9 59 d6 bd 25 6b e0 be
       0.055312067 0.24761367 -0.10466356 -0.43831745
000160 73 49 00 bf c8 60 f2 be 53 06 00 3f d4 10 02 3f
       -0.50112075 -0.47339463 0.5000965 0.5080693
000170 1e 10 0f 3f d3 a9 a0 3f 50 f6 bb 3c 05 72 12 bf
       0.5588397 1.2551826 0.0229446 -0.5720523
000180 cd 6f 86 3e f5 db 75 3f f0 4e 91 be 55 31 36 bf
       0.26257172 0.9603875 -0.28380537 -0.71169025
000190 bb 86 07 3c 74 05 1c 3f d6 ea 93 be 31 c0 07 bf
       0.008271868 0.6094582 -0.28890103 -0.53027636
0001a0 fe 29 94 bf 1a ef 34 3e 9a 2f 34 be a4 e8 c8 be
       -1.1575315 0.17669335 -0.17596284 -0.3923999
0001b0 ff bf d5 3d 52 25 ce bd 77 4f 1f be 0c 0c 40 3f
       0.10437011 -0.10065712 -0.15557657 0.7501838
0001c0 62 66 a0 3f 3a 59 95 3f 56 2b 91 bd 17 7d 99 bf
       1.2531245 1.1667855 -0.07088344 -1.1991299
0001d0 d0 68 d7 bd af c0 04 be 2e d0 41 3e 9e 58 02 3f
       -0.10518038 -0.12964128 0.1892707 0.5091647
0001e0 57 45 cd 3e a4 d6 9f bd ad 4c 29 be 35 cb 59 3f
       0.40091965 -0.07804611 -0.16533156 0.85075694
0001f0 f9 05 ce bf 90 ed 2f be 3f 05 5c 3d a8 ac 84 3d
       -1.6095573 -0.17180467 0.05371594 0.06478244

l1.bias f4 [32]
000000 5d 04 c4 bc 53 36 8a be 50 fe a8 bd ca 94 e7 3e
       -0.023927862 -0.2699457 -0.08251631 0.45230705
000010 54 a9 38 3d a1 93 20 bd c6 08 2f 3e fc d6 a8 3c
       0.04508336 -0.03920329 0.1709319 0.020610325
000020 0d cc 05 3e d6 7b a2 bd 5d b2 eb 3c da 6a fe bd
       0.1306612 -0.07933776 0.028771574 -0.12422724
000030 e4 b1 08 3f c8 d0 5c 3e af 7e f6 3e 0a 55 c0 3b
       0.5339644 0.21564019 0.48143527 0.0058695124
000040 10 63 db be 52 27 1c 3e ec 7b 01 3e 68 6e 56 bc
       -0.42849016 0.15249375 0.12644929 -0.013087846
000050 6a ab b2 be c6 79 c2 be bc ae 07 be ee c2 00 3e
       -0.34896404 -0.3798353 -0.1325025 0.1257436
000060 f5 66 34 3d 0d dc 6f 3e 7a 53 fe 3e ce ba e5 be
       0.0440435 0.23423786 0.49673063 -0.44869083
000070 ad 5b 98 bd 9c 32 a1 be 7b be 5a bd f0 10 93 bb
       -0.07439361 -0.31483924 -0.053404313 -0.004488103

l2.weight f4 [32, 32]
000000 d2 e0 a7 3d 3a d5 ae be e9 c1 6c be 84 2c 18 be
       0.08197178 -0.34147054 -0.23120846 -0.14860731
000010 68 2f 6c 3d cd 41 2b be bc f3 18 3d e3 1a 30 be
       0.057662398 -0.1672432 0.03734182 -0.17197756
000020 4e 36 08 be 49 3d fd 3b 23 8b ae 3e bf d9 1f be
       -0.13301966 0.007728253 0.34090528 -0.15610407
000030 d2 06 9c bd fa 32 31 3e bb a2 62 be 11 ab c6 3d
       -0.07618488 0.17304602 -0.22132389 0.09700597
000040 32 b8 2c be 22 6b 32 be 1a b5 6c 3e 25 8b ea bd
       -0.1686714 -0.1742368 0.2311596 -0.11452321
000050 ab 48 ce 3d 0b d6 f4 3d a6 ab 8b 3d 3c 34 ee 3d
       0.10072454 0.11954888 0.06819849 0.11631057
000060 68 eb 3c 3e 5e 03 6c 3e 45 62 25 3d e7 de ce bc
       0.18449175 0.2304816 0.04037692 -0.025252772
000070 4d c3 45 be de 12 b3 be cd 58 d6 3d 61 95 a8 3e
       -0.19312783 -0.34975332 0.10466156 0.32926467
000080 b3 d5 15 bc 3b 8f 84 be d2 27 3e be e0 0d cb bd
       -0.009145188 -0.25890526 -0.18569878 -0.09914756
000090 e9 32 6f bc b8 15 ef bd 54 8b 29 3c 20 14 69 be
       -0.01459954 -0.116740644 0.01034816 -0.22761583
0000a0 f9 42 19 3d fe 3f 2e 3e b0 60 99 3d 97 64 54 be
       0.037417386 0.17016599 0.07489145 -0.20741497
0000b0 01 ed a9 be 43 37 6a 3e 08 e8 fb bd 87 7d e6 3d
       -0.33188632 0.22872643 -0.12300116 0.11254411
0000c0 1f 9b 13 be 9a 6c 9b bd 24 22 b9 3d cd be ef 3b
       -0.14414643 -0.075890735 0.09039715 0.0073164464
0000d0 08 3f 19 3e 5d 55 d0 3d b7 3c 5c bd 48 5d b9 3d
       0.14965451 0.10172532 -0.05376884 0.09050995
0000e0 f7 08 58 bd de 4b 82 3d 69 98 61 3e 57 34 04 be
       -0.052742925 0.06362127 0.22030796 -0.12910591
0000f0 6c f6 59 bd d4 4e 7c be 40 f3 92 3b c3 a3 4e 3e
       -0.05321352 -0.24639446 0.004484564 0.20179658
000100 be 71 6c be d1 f8 b1 3e 75 ca c0 bc 61 a1 38 bd
       -0.23090264 0.34760144 -0.023534039 -0.045075778
000110 cc c4 f3 bd 86 21 0f 3e 90 20 1d be b4 e3 cb 3e
       -0.119027704 0.13977632 -0.15344453 0.3982216
000120 7a e5 e8 3b 31 bc a8 3d 94 0d b5 bd 52 37 43 bd
       0.007107434 0.0823902 -0.088404804 -0.04766018
000130 f0 be 91 3e e0 9b 8a be 5c e4 a4 3b 9b 65 01 3e
       0.28465986 -0.27072048 0.0050321054 0.12636416
000140 aa 4d 6b 3e 14 ca 7f 3e 71 b0 34 be eb 77 5e bd
       0.22978845 0.2497943 -0.17645432 -0.05431358
000150 57 5c 7e bd 43 ae 91 be f1 1d 27 3e 36 62 43 be
       -0.06209978 -0.28453264 0.16320015 -0.19080433
000160 48 b5 5b bd ae a7 21 be d6 0e 1f be 0e 44 65 3d
       -0.05363968 -0.15786621 -0.15533003 0.055973105
000170 3f 99 30 3e 35 00 bd 3e df 93 0a bc af 72 8d be
       0.17245959 0.3691422 -0.008458107 -0.2762656
000180 43 f9 5e bd f8 cd 8d be 44 18 e6 bd 1f 98 db bd
       -0.054436933 -0.27696204 -0.11235097 -0.10722374
000190 e5 4f ac 3c 16 0f ad bd 58 13 13 3e f4 b0 81 bd
       0.02103419 -0.08450143 0.14362848 -0.06332579
0001a0 e4 7e 27 3e 9c 1e 06 bd f4 2a 7a 3e 4a 75 9b bd
       0.16356999 -0.032744035 0.24430448 -0.075907305
0001b0 18 e0 dd bd f5 d6 c3 3d a4 fd 8b bd 54 30 b9 bd
       -0.10833758 0.09562484 -0.068354875 -0.09042421
0001c0 af 54 00 bf 09 95 08 bd 8f 3e b2 bd 90 44 bd bd
       -0.50129217 -0.033345256 -0.08703338 -0.09241593
0001d0 4e 6b 99 3e 18 5d 6b 3d 0c 01 c7 bd 6a 62 25 3e
       0.2996468 0.057461828 -0.097169966 0.16150823
0001e0 c3 d4 e9 3d 07 f7 60 3d cf 12 a9 3c ae 59 42 3e
       0.11417534 0.054923084 0.020638851 0.18979523
0001f0 d7 fc 01 bd b5 2c 97 be 63 41 c9 bd 2f 34 82 3e
       -0.031735267 -0.29526296 -0.09826925 0.25430438
000200 b8 3e 83 3d ca b7 86 be 41 a8 35 be 76 a4 4a 3d
       0.06408447 -0.26312095 -0.17739965 0.04947325
000210 86 58 08 3e e3 9e 1a be 85 49 ac 3d 3d bf ac be
       0.13315019 -0.15099673 0.0841246 -0.33739653
000220 6e 91 09 3e 44 bb a7 bd e5 50 77 3e 7a 75 0a be
       0.13434383 -0.08190015 0.24151953 -0.13521376
000230 a5 f5 9d be 27 4f 14 3e 05 d2 1e be 8c 61 af 3a
       -0.30851474 0.14483319 -0.15509804 0.0013380512
000240 b5 cd da bd 2b c8 76 be 62 7c 05 3e 71 4e ca 3d
       -0.10683767 -0.24099796 0.1303573 0.09878243
000250 49 5a 3f 3e 2b fd ec 3d df 2a 68 be 54 64 f1 3c
       0.18686785 0.115717255 -0.22672604 0.029466785
000260 22 4b 14 3e 86 d9 af 3d 44 8a 09 3e fa 2f e9 3d
       0.14481786 0.08586411 0.1343165 0.11386104
000270 f9 53 0a be 76 02 d7 be 4f 5a 51 3c 61 d7 55 3e
       -0.13508596 -0.41994065 0.012777879 0.20882942
000280 96 f8 86 3d b0 36 7f be 1d 98 f0 be b8 ea 18 3c
       0.06590383 -0.24923205 -0.46991053 0.009333305
000290 11 dd c0 3e 98 16 5e 3d bd f6 e7 3e 03 31 06 bf
       0.3766866 0.054220766 0.45305434 -0.52418536
0002a0 00 8a 2c bc 02 49 71 3b 73 3c ad bd c1 b6 0c bf
       -0.010530949 0.0036817198 -0.084587954 -0.5496636
0002b0 f1 dc 2d 3d 83 16 ea 3e 9e 28 e2 be 14 99 42 bd
       0.042447034 0.457203 -0.44171613 -0.047509268
0002c0 58 50 2e 3d 80 31 2a 3e 1f 9e f6 3e df 60 77 3d
       0.04255709 0.16620445 0.48167512 0.060395118
0002d0 38 f8 04 3e 51 cc 06 3c 23 1b 1d 3e a5 51 d0 3e
       0.12985313 0.008227424 0.15342383 0.4068729
0002e0 98 f3 8e bd bf f9 a1 3e a1 98 f9 bd d5 c6 f8 bc
       -0.069800556 0.31635854 -0.12187315 -0.030368248
0002f0 cd 50 0f bd 1d f4 ca be ed c5 48 be 62 5c 3b 3e
       -0.034989167 -0.3963937 -0.19606753 0.1829696
000300 13 ee 0f be 15 3f ba 3e 17 49 f6 3d fa 5d 8a 3d
       -0.14055662 0.36376253 0.120256595 0.06756206
000310 cb 5d 31 be 9f 69 85 3e d2 13 88 be 49 7a 9e 3e
       -0.17320935 0.26057145 -0.26577622 0.3095267
000320 0f 48 24 be 89 07 60 be 11 82 b4 be b2 0a 8c 3e
       -0.16043113 -0.21877874 -0.35255483 0.2735191
000330 4d 0b aa 3e 52 4a 04 3d da 71 66 3e b3 a9 04 be
       0.33211747 0.03229744 0.22504368 -0.1295536
000340 50 03 ab 3d 9f bb 1e 3d fe 1e 64 be 34 3d 71 3d
       0.08350241 0.03875315 -0.22277448 0.05889626
000350 7f be 80 be dc 2a 76 be 17 ce 08 be eb d1 55 be
       -0.25145337 -0.24039787 -0.13359867 -0.20880859
000360 14 ef 67 3d 43 2a 9b bc 23 7d b6 3d ae 5f ee 3d
       0.056624487 -0.01894105 0.08910587 0.11639343
000370 7c 95 47 3e ff 80 c7 3e 24 bd 03 3e 71 f9 06 bd
       0.19490618 0.38965604 0.1286512 -0.03295273
000380 5c 4e 39 3e 33 ac 19 be 54 16 f5 3c 1f 3c 3a 3e
       0.18096298 -0.15007095 0.029917873 0.18186997
000390 43 b2 96 bd 53 b3 26 be d6 7b 04 bd 57 d0 55 be
       -0.073582195 -0.16279344 -0.03234466 -0.20880257
0003a0 79 1c 7d bd bd e6 cb 3c 28 d4 61 3e 61 aa f5 3d
       -0.06179473 0.024890298 0.22053587 0.11995388
0003b0 94 ca 68 bc 60 0b 36 bd fe 76 91 bd be 17 3d 3d
       -0.014208455 -0.04444444 -0.07102774 0.04616522
0003c0 49 df be be a2 e0 07 3e f3 9e d9 bd cf bd 8c 3e
       -0.37279728 0.13269284 -0.1062602 0.27488562
0003d0 5d e1 9c 3e 89 f6 5a bd c6 50 6f 3e 07 6e 05 3e
       0.3064069 -0.05345777 0.23370656 0.13030253
0003e0 af 41 9c bc 41 15 73 3e 7a e8 ee bd f2 ee f5 bd
       -0.01907429 0.23738576 -0.11665435 -0.12008466
0003f0 45 f8 d1 3d bf 48 c2 be 67 1e 81 be 3b 01 dd bd
       0.10252432 -0.37946126 -0.25218508 -0.1079125

l2.bias f4 [32]
000000 11 7e 27 be 4a c9 4c be 48 e4 85 bc a8 b9 32 3d
       -0.16356684 -0.1999866 -0.016344205 0.043634087
000010 4e 5d ee 3d 36 18 97 bd e0 6a 60 3d 0f 10 1a 3e
       0.1163889 -0.07377665 0.054789424 0.15045188
000020 24 e2 ba 3e 19 f4 0b 3e 00 24 a8 3d 03 f6 21 be
       0.36500657 0.13667335 0.082099915 -0.15816502
000030 8d bb fa 3d 69 27 97 3c 36 51 99 3b 7d 83 eb 3d
       0.12242804 0.01845141 0.0046788706 0.11499689
000040 f5 7b de 3d fa e7 15 bc 70 28 b1 3d f7 ec 99 be
       0.10863487 -0.009149546 0.08650291 -0.30063602
000050 bc bf 32 be 63 2c bf bd e3 d1 2f be 2f 75 4d 3e
       -0.17455953 -0.09334638 -0.17169909 0.20064233
000060 38 ea 70 3d 95 e2 aa bb f6 ef 1a be b3 58 5b bd
       0.05881712 -0.005214999 -0.151306 -0.053551387
000070 4f 23 f3 3d ae f0 99 bd e1 2a 21 be a4 a9 a6 bd
       0.11871969 -0.07516609 -0.15739013 -0.08137825

l3.weight f4 [1, 32]
000000 4b f2 57 3f fb 70 82 3f f7 a9 a0 bf 06 6b 38 3e
       0.84354085 1.0190729 -1.2551869 0.18009576
000010 85 7e 81 3f c4 37 41 3f 43 50 7e bf 48 c6 f9 bd
       1.0116736 0.75475717 -0.9934122 -0.12196022
000020 6c 68 38 bf 08 b4 2f 3f b5 c1 2a bf c8 6f 4b 3f
       -0.72034335 0.6863408 -0.66701823 0.7946744
000030 ee 93 13 3f 9a 2f 3e bf be 3f c1 3f f2 1f 10 3f
       0.576476 -0.74291384 1.5097578 0.56298745
000040 1b 58 cc be 70 d9 41 bf 1a f0 66 3f 6d 34 da be
       -0.3991097 -0.7572241 0.90210116 -0.42618123
000050 57 51 44 3f 3e 11 9d 3e ce 79 4d 3f 74 6a 56 bf
       0.76686615 0.30677217 0.80263984 -0.83756185
000060 89 3e 6a bf d6 2b a0 3e f0 dd 8f 3f 2e 33 1c bf
       -0.9150167 0.31283444 1.1239605 -0.61015594
000070 e5 7d 16 bf b5 da 99 bf f9 ec 27 bf f3 7f 83 bf
       -0.5878585 -1.2019869 -0.65595967 -1.0273422
